apps/microtvm/grovety/sine/sine_model.tflite (tflite, 2656 bytes, 5 tensors)

sequential_2/dense_4/MatMul/ReadVariableOp/transpose f4 [16, 1]
0	0xbaba4592	-0.0014211407
1	0x3ec910d6	0.39270657
2	0xbd756f90	-0.059920847
3	0x3eddbfd3	0.43310413
4	0xbe525cfa	-0.2054328
5	0xbec48d98	-0.38389277
6	0x3e8ee1be	0.27906603
7	0xbe86a34b	-0.26296458
8	0x3eadec16	0.33969182
9	0xbcaa6401	-0.020799639
10	0xbf017694	-0.5057156
11	0x3ebb55a3	0.36588773
12	0xbd74e590	-0.05978924
13	0x3ed4deba	0.41576177
14	0xbe393be4	-0.18089253
15	0x3ea2dee0	0.31810665

sequential_2/dense_4/MatMul_bias f4 [16]
0	0xbbb82d60	-0.0056206435
1	0xbf5f25a1	-0.8716679
2	0x00000000	0.0
3	0xbf5721a7	-0.84035724
4	0x00000000	0.0
5	0x00000000	0.0
6	0x3eb4f995	0.35346666
7	0x00000000	0.0
8	0xbec18015	-0.3779303
9	0x3f296408	0.6616826
10	0x00000000	0.0
11	0x3ddd8a1f	0.1081736
12	0x00000000	0.0
13	0xbeb03d15	-0.34421602
14	0x00000000	0.0
15	0x3df7f668	0.12107545

sequential_2/dense_5/MatMul/ReadVariableOp/transpose f4 [16, 16]
0	0xbea53159	-0.32264212
1	0xbe93ea3d	-0.28889647
2	0xbdcef8c8	-0.10106045
3	0x3e8d3438	0.27578902
4	0x3eabc409	0.33548
5	0xbe5a767c	-0.2133426
6	0x3f05f98d	0.5233391
7	0x3c0e88a0	0.008699566
8	0x3ebf579f	0.37371537
9	0xbe060ea1	-0.13091518
10	0x3e47fce6	0.19530067
11	0x3e902c62	0.2815886
12	0xbe8b8c24	-0.27255356
13	0xbec0a74b	-0.37627634
14	0x3e94450b	0.28958926
15	0x3dc20106	0.094728515
16	0xbe463ad0	-0.19358373
17	0xbe675a0a	-0.22592941
18	0x3e8a0c4b	0.26962504
19	0xbe01be29	-0.12670197
20	0xbe8aea36	-0.27131814
21	0xbe6d4d31	-0.23173977
22	0xbee494a9	-0.4464467
23	0x3e1dad16	0.15398058
24	0xbf08ea63	-0.53482646
25	0x3ebc372f	0.36760852
26	0xbbd83040	-0.0065975487
27	0x3de2d394	0.110755116
28	0xbdbebcc8	-0.09313351
29	0x3ed5003a	0.41601735
30	0xbdf268a0	-0.11836362
31	0xbe686775	-0.22695716
32	0xbd222bf8	-0.039592713
33	0xbd947648	-0.07249123
34	0xbebbb26e	-0.3665957
35	0x3e1398d8	0.14413774
36	0xbeb7bbcd	-0.35885468
37	0xbe384330	-0.1799438
38	0xbeca4af0	-0.39510298
39	0xbe96f4ca	-0.29483634
40	0xbe61f6ec	-0.2206685
41	0x3e5a63ca	0.21327129
42	0xbe7270e0	-0.23675871
43	0xbe214df8	-0.15752399
44	0xbe901c54	-0.28146613
45	0xbd517923	-0.051140916
46	0x3e67ea22	0.22647908
47	0xbed7a5ae	-0.4211859
48	0x3e7704b5	0.2412289
49	0x3f09b310	0.5378885
50	0xbe61a25a	-0.22034588
51	0x3ed6cf56	0.4195506
52	0xbe14513c	-0.14484113
53	0x3def1f1c	0.116758555
54	0xbeb9c075	-0.36279646
55	0xbe1b89d2	-0.15189293
56	0x3ec0575c	0.3756665
57	0xbe9f3aec	-0.3109964
58	0x3e9c3e27	0.30516168
59	0xbd88758d	-0.06663046
60	0xbdfded1c	-0.12398741
61	0x3d4e4d55	0.05036672
62	0x3e22b492	0.15889195
63	0x3dee5dd5	0.11638991
64	0xbe554d1f	-0.208302
65	0xbc1f5528	-0.009724893
66	0xbed486d7	-0.41509125
67	0xbdb01888	-0.08598429
68	0xbe3997a4	-0.18124253
69	0x3ecc2f43	0.39879808
70	0x3e8ba28d	0.27272454
71	0xbe57a740	-0.21059895
72	0xbeec7b94	-0.46188033
73	0x3f063262	0.5242063
74	0x3e15d8d6	0.14633498
75	0x3e4eaee8	0.20183909
76	0x3e5079ae	0.20358917
77	0xbeb1ba22	-0.3471232
78	0x3e5d7eda	0.21630421
79	0xbe8163d0	-0.25271463
80	0x3ea73fea	0.3266595
81	0x3f28b2a4	0.65897584
82	0xbd69c0a0	-0.057068467
83	0x3e6339f2	0.22190073
84	0xbdfd6e3c	-0.12374541
85	0x3cb8e3f0	0.022569627
86	0xbf0114c3	-0.50422305
87	0x3eb8a0c9	0.3606017
88	0x3e86727d	0.26259223
89	0xbf4d9123	-0.80299586
90	0x3e57585e	0.21029803
91	0x3e9fa750	0.31182337
92	0xbe090d20	-0.13383913
93	0x3d7ef2b6	0.062243186
94	0x3dec553c	0.11539695
95	0xbe33e470	-0.1756761
96	0x3e916c27	0.28402826
97	0x3d048310	0.032351553
98	0xbdccca5c	-0.099995345
99	0xbedf85c6	-0.4365675
100	0x3e96bbf5	0.29440275
101	0xbe8080ae	-0.25098175
102	0x3e700852	0.23440674
103	0x3dd3206c	0.10308918
104	0x3ebccea9	0.3687642
105	0xbd28fb13	-0.041255068
106	0xbe0fd77c	-0.14047045
107	0xbe87a5f0	-0.26493788
108	0x3e89b947	0.26899168
109	0x3ea1620c	0.31520116
110	0xbecd9cd5	-0.40158716
111	0x3e36a0a3	0.17834716
112	0xbd7e5e70	-0.06210178
113	0x3ddb395b	0.10704299
114	0x3e588562	0.21144632
115	0xbe02b31f	-0.12763642
116	0x3dddb604	0.10825732
117	0xbe9055a0	-0.28190327
118	0xbec34b9d	-0.38143626
119	0xbe4b8031	-0.1987312
120	0x3df3a971	0.11897553
121	0x3e0bf8f0	0.13669181
122	0xbd167940	-0.036736727
123	0x3e784467	0.24244843
124	0xbe18fc74	-0.14940053
125	0xbe0f9193	-0.14020376
126	0x3df2ab24	0.11849049
127	0xbe9bf788	-0.3046229
128	0xbe894020	-0.26806736
129	0xbd4c026f	-0.04980701
130	0x3ec3dbd3	0.3825365
131	0xbf05488c	-0.5206382
132	0x3ea7afef	0.32751414
133	0x3e53738a	0.20649543
134	0xbf272a04	-0.65298486
135	0x3ec21bc7	0.37911817
136	0xbc2abecc	-0.010421466
137	0x3f251673	0.6448738
138	0x3e258692	0.16164616
139	0x3d318036	0.043335162
140	0x3de62be4	0.1123884
141	0x3b864ead	0.0040987344
142	0x3e5d5fba	0.21618548
143	0xbf2d58be	-0.67713535
144	0x3e895581	0.26823047
145	0xbf16917c	-0.5881574
146	0x3d438e00	0.047742844
147	0xbe99dfdc	-0.30053604
148	0x3dd3cfcc	0.103423685
149	0xbe8f8e58	-0.28038287
150	0x3eb52fac	0.35387933
151	0xbeb0a4ae	-0.3450064
152	0xbee4ca5f	-0.44685647
153	0x3f0e1ed3	0.55515784
154	0x3e97faa3	0.29683408
155	0x3ecc5592	0.39909035
156	0x3cde80e0	0.027161062
157	0xbe80ab8b	-0.25130877
158	0x3e3f06ba	0.1865491
159	0xbdb702c8	-0.08936077
160	0xbe025246	-0.12726697
161	0xbf260036	-0.6484407
162	0x3e2e05f2	0.16994455
163	0xbda49a30	-0.080372214
164	0x3e1eff6a	0.1552712
165	0x3e4996c6	0.19686422
166	0xbe396687	-0.18105517
167	0xbe721e69	-0.23644413
168	0xbe8be3de	-0.27322286
169	0xbe56a718	-0.20962179
170	0xbcfb4940	-0.030674577
171	0x3e677949	0.2260486
172	0x3e19f62a	0.1503531
173	0x3dcae37c	0.099066705
174	0x3e30b34a	0.17255893
175	0x3e7b24ce	0.24525759
176	0x3e477aae	0.19480392
177	0xbea2adb3	-0.31773147
178	0xbd3f2940	-0.0466702
179	0xbebc7c03	-0.36813363
180	0x3d778de8	0.060438067
181	0xbd19db48	-0.03756264
182	0xbe9309e0	-0.28718472
183	0x3e023ea2	0.12719205
184	0xbec152a2	-0.37758356
185	0x3b720798	0.0036930796
186	0xbeaca9d4	-0.3372332
187	0x3e9f9b4b	0.31173167
188	0xbe898e76	-0.26866502
189	0xbdb4aebf	-0.08822393
190	0xbed21044	-0.41028035
191	0xbecd24a5	-0.4006702
192	0x3e7b2f46	0.24529752
193	0x3e3c5a5e	0.18393847
194	0xbe5dce86	-0.21660814
195	0x3eb3658a	0.35038406
196	0x3b882d00	0.004155755
197	0xbe92ac4e	-0.28647083
198	0x3eb61bfc	0.35568225
199	0xbea56652	-0.32304627
200	0x3e2c6c6d	0.16838236
201	0xbef88d84	-0.48545468
202	0x3e0ad56a	0.13557974
203	0x3ccac616	0.024752658
204	0x3ec0e0cb	0.37671503
205	0xbcf55a14	-0.02995018
206	0xbe4fb7b8	-0.20284927
207	0xbe3095ac	-0.17244595
208	0x3edb6535	0.42850652
209	0x3e41852a	0.18898454
210	0xbedc4422	-0.4302073
211	0xbc63c7a0	-0.013902575
212	0x3e55d6a2	0.20882657
213	0x3d9c419c	0.076297015
214	0xbd9e7593	-0.07737269
215	0xbd8a7edc	-0.06762478
216	0xbdd8d060	-0.105866194
217	0x3e972c9d	0.29526225
218	0xbe76bce3	-0.24095492
219	0xbeea0829	-0.4570935
220	0x3eb55891	0.35419133
221	0xbe2748f7	-0.16336428
222	0x3c9a90b0	0.01886782
223	0xbdb47609	-0.08811576
224	0x3c1e63c0	0.009667337
225	0xbec3a177	-0.38209125
226	0x3e62ba92	0.22141483
227	0xbd0acd58	-0.033887237
228	0xbe21b56c	-0.15791863
229	0x3ec7646b	0.389438
230	0xbe89de68	-0.26927495
231	0x3e99b5fd	0.3002166
232	0x3e6152a6	0.22004184
233	0xbd91b7c4	-0.07115129
234	0x3e60aa6e	0.21940014
235	0xbe82500b	-0.25451693
236	0xbe9f5bc7	-0.31124708
237	0xbeb2ed0e	-0.34946483
238	0xbe8cd0ea	-0.2750314
239	0x3e3fa5c6	0.18715581
240	0x3ec0e683	0.37675866
241	0x3d512315	0.051058847
242	0xbd8462ec	-0.0646418
243	0x3e10ecfc	0.14152902
244	0xbe8a103e	-0.26965517
245	0x3c0b7340	0.008511364
246	0xbddf37d6	-0.10899322
247	0xbe91bbee	-0.2846369
248	0x3ea62f86	0.32458133
249	0xbe6630e7	-0.22479592
250	0xbe612e1d	-0.21990247
251	0x3d8e1579	0.06937689
252	0x3e2bff9a	0.16796723
253	0xbe8c7832	-0.27435452
254	0x3ed369a5	0.41291538
255	0xbe0b64c2	-0.13612655

sequential_2/dense_5/MatMul_bias f4 [16]
0	0x3e7e9084	0.24859816
1	0x3ef98571	0.4873462
2	0xbce84d3e	-0.028357144
3	0xbecac806	-0.3960573
4	0x3ebe0cea	0.37119228
5	0xbf08b687	-0.53403515
6	0x3e811e44	0.25218403
7	0xbdf22c5c	-0.11824867
8	0x3efb9e9d	0.4914445
9	0x3ec05318	0.37563396
10	0x3ec6aa51	0.38801816
11	0xbdd151cf	-0.10220682
12	0xbeb7a3c5	-0.35867134
13	0xbde8e841	-0.11372424
14	0x00000000	0.0
15	0xbd1cfa5a	-0.03832469

sequential_2/dense_6/MatMul/ReadVariableOp/transpose f4 [1, 16]
0	0xbf1a54bb	-0.6028554
1	0xbf7b40f1	-0.9814597
2	0x3f0526db	0.52012414
3	0x3f18ad77	0.59639686
4	0x3f5da17b	0.86574525
5	0x3fc3a539	1.5284797
6	0xbe0e5c24	-0.13902336
7	0x3e7671f6	0.2406691
8	0xbf8b1dbc	-1.0868449
9	0x3f8133a7	1.0093888
10	0x3fa3fe7a	1.2812035
11	0x3eb59acf	0.35469672
12	0x3eeb4456	0.45950574
13	0x3dbe8e23	0.09304454
14	0x3ec8cd54	0.39219153
15	0x3e836105	0.25659958
