apps/microtvm/grovety/test_models/mnist8/mnist_model_quant_2.tflite (tflite, 60088 bytes, 2 tensors)

sequential/conv2d/Conv2D i1 [32, 3, 3, 4]
-66 7 -8 -4 -108 18 9 -23
-127 5 -20 -17 33 -4 6 -21
6 15 19 17 -47 -6 -4 7
108 0 19 12 109 19 16 11
31 -15 -3 -14 55 7 -9 12
-44 28 18 21 -127 8 7 21
82 8 4 -12 22 21 15 8
-48 -25 -15 -30 57 -5 7 1
28 25 -18 -28 37 -4 28 11
-118 -16 -13 -8 -127 -8 -7 -10
-87 6 -13 -17 50 7 0 9
-12 10 -10 2 -123 -5 21 9
87 1 18 21 30 -12 -1 -14
-50 8 15 -8 111 11 9 -6
-127 19 2 -20 -28 -5 -18 -1
-57 -3 13 -10 -115 6 -2 -9
77 9 -3 -1 -86 -11 -19 -18
30 3 7 9 89 -13 -1 1
-64 93 45 0 -57 25 -89 37
65 63 -29 12 127 0 59 -28
54 39 -12 78 19 66 15 -11
9 62 60 -49 -52 -47 -87 62
34 -8 -43 10 126 -65 47 34
110 11 9 -8 -70 -7 7 -3
-83 -47 2 62 93 42 70 -39
-25 -26 -69 -29 -124 13 -45 21
39 -35 -52 -68 127 16 64 -77
55 19 3 3 -22 24 -12 2
-127 -13 0 -10 93 -22 20 19
-12 20 -7 9 -97 -3 22 24
95 19 1 -9 13 -14 16 -6
-43 3 24 -3 12 46 -26 -46
00000000: be07 f8fc 9412 09e9 8105 ecef 21fc 06eb
00000010: 060f 1311 d1fa fc07 6c00 130c 6d13 100b
00000020: 1ff1 fdf2 3707 f70c d41c 1215 8108 0715
00000030: 5208 04f4 1615 0f08 d0e7 f1e2 39fb 0701
00000040: 1c19 eee4 25fc 1c0b 8af0 f3f8 81f8 f9f6
00000050: a906 f3ef 3207 0009 f40a f602 85fb 1509
00000060: 5701 1215 1ef4 fff2 ce08 0ff8 6f0b 09fa
00000070: 8113 02ec e4fb eeff c7fd 0df6 8d06 fef7
00000080: 4d09 fdff aaf5 edee 1e03 0709 59f3 ff01
00000090: c05d 2d00 c719 a725 413f e30c 7f00 3be4
000000a0: 3627 f44e 1342 0ff5 093e 3ccf ccd1 a93e
000000b0: 22f8 d50a 7ebf 2f22 6e0b 09f8 baf9 07fd
000000c0: add1 023e 5d2a 46d9 e7e6 bbe3 840d d315
000000d0: 27dd ccbc 7f10 40b3 3713 0303 ea18 f402
000000e0: 81f3 00f6 5dea 1413 f414 f909 9ffd 1618
000000f0: 5f13 01f7 0df2 10fa d503 18fd 0c2e e6d2

sequential/dense/MatMul i1 [10, 5408] scale=0.0065337503 zero_point=0
-0.0065337503 0.019601252 0.013067501 0.0653375 -0.026135001 0.03266875 -0.013067501 0.0065337503
0.058803752 0.013067501 -0.0065337503 0.013067501 0.013067501 -0.045736253 0.0653375 -0.026135001
0.045736253 0.013067501 0.013067501 0.019601252 0.13720876 0.026135001 -0.0065337503 0.0
0.0065337503 0.17641126 0.07840501 -0.03266875 0.013067501 0.019601252 -0.013067501 0.0
-0.07187125 0.0065337503 -0.019601252 -0.104540005 -0.026135001 0.013067501 0.052270003 0.0
0.052270003 -0.03266875 -0.013067501 -0.039202504 -0.0065337503 -0.058803752 -0.03266875 -0.0065337503
-0.0065337503 0.013067501 -0.019601252 -0.058803752 -0.098006256 -0.026135001 0.013067501 -0.039202504
-0.0653375 0.0065337503 -0.111073755 0.07840501 0.026135001 -0.026135001 0.0065337503 -0.03266875
-0.18294501 -0.08493876 0.0065337503 -0.117607504 -0.0653375 -0.07187125 -0.098006256 -0.058803752
0.052270003 -0.07187125 0.026135001 -0.130675 -0.026135001 -0.09147251 -0.12414125 0.013067501
-0.130675 -0.104540005 -0.111073755 -0.104540005 -0.19601251 -0.03266875 -0.019601252 -0.104540005
-0.16334376 -0.12414125 -0.22214751 -0.117607504 -0.104540005 -0.08493876 -0.17641126 -0.052270003
-0.13720876 -0.16334376 -0.039202504 -0.058803752 -0.07187125 -0.098006256 -0.18294501 -0.039202504
0.045736253 0.013067501 0.052270003 -0.098006256 0.013067501 -0.117607504 -0.039202504 0.013067501
-0.07187125 -0.09147251 -0.07187125 -0.09147251 -0.013067501 -0.111073755 -0.026135001 -0.098006256
-0.117607504 -0.16987751 -0.098006256 -0.09147251 -0.09147251 -0.08493876 -0.16987751 -0.07840501
-0.052270003 -0.07187125 -0.0065337503 -0.09147251 -0.08493876 -0.13720876 -0.18294501 -0.058803752
0.08493876 -0.15681002 0.039202504 -0.07840501 -0.08493876 -0.20908001 -0.18294501 -0.019601252
-0.130675 -0.039202504 -0.08493876 -0.026135001 -0.08493876 -0.16987751 0.013067501 -0.117607504
0.013067501 -0.15027626 -0.07840501 -0.18947875 -0.058803752 -0.12414125 -0.07840501 -0.23521501
-0.045736253 -0.058803752 -0.045736253 -0.16987751 -0.07187125 -0.130675 -0.12414125 -0.16334376
0.045736253 -0.29401878 0.052270003 -0.13720876 -0.21561377 -0.20254625 -0.29401878 0.0065337503
-0.12414125 -0.026135001 -0.12414125 -0.09147251 -0.08493876 -0.16987751 0.0065337503 -0.15027626
0.026135001 -0.111073755 -0.08493876 -0.22214751 -0.1437425 -0.15027626 -0.07840501 -0.18947875
-0.052270003 -0.130675 -0.0065337503 -0.111073755 -0.15027626 -0.0653375 -0.019601252 -0.1437425
0.104540005 -0.13720876 0.098006256 -0.19601251 -0.1437425 -0.28095126 -0.16334376 0.0065337503
-0.08493876 -0.104540005 -0.09147251 -0.0065337503 -0.052270003 -0.33975503 -0.0065337503 -0.20254625
0.013067501 -0.07187125 -0.07187125 -0.052270003 -0.09147251 -0.15027626 -0.039202504 -0.07187125
-0.130675 -0.20254625 -0.052270003 -0.104540005 -0.12414125 -0.045736253 -0.07187125 -0.16987751
0.058803752 -0.104540005 0.104540005 -0.09147251 -0.104540005 -0.20908001 -0.045736253 -0.026135001
-0.026135001 -0.0653375 -0.07840501 -0.026135001 -0.09147251 -0.18947875 -0.0653375 -0.0653375
-0.08493876 -0.07187125 -0.117607504 -0.07187125 -0.058803752 -0.1437425 -0.117607504 -0.21561377
00000000: ff03 020a fc05 fe01 0902 ff02 02f9 0afc
00000010: 0702 0203 1504 ff00 011b 0cfb 0203 fe00
00000020: f501 fdf0 fc02 0800 08fb fefa fff7 fbff
00000030: ff02 fdf7 f1fc 02fa f601 ef0c 04fc 01fb
00000040: e4f3 01ee f6f5 f1f7 08f5 04ec fcf2 ed02
00000050: ecf0 eff0 e2fb fdf0 e7ed deee f0f3 e5f8
00000060: ebe7 faf7 f5f1 e4fa 0702 08f1 02ee fa02
00000070: f5f2 f5f2 feef fcf1 eee6 f1f2 f2f3 e6f4
00000080: f8f5 fff2 f3eb e4f7 0de8 06f4 f3e0 e4fd
00000090: ecfa f3fc f3e6 02ee 02e9 f4e3 f7ed f4dc
000000a0: f9f7 f9e6 f5ec ede7 07d3 08eb dfe1 d301
000000b0: edfc edf2 f3e6 01e9 04ef f3de eae9 f4e3
000000c0: f8ec ffef e9f6 fdea 10eb 0fe2 ead5 e701
000000d0: f3f0 f2ff f8cc ffe1 02f5 f5f8 f2e9 faf5
000000e0: ece1 f8f0 edf9 f5e6 09f0 10f2 f0e0 f9fc
000000f0: fcf6 f4fc f2e3 f6f6 f3f5 eef5 f7ea eedf
