apps/microtvm/grovety/test_models/mnist8/mnist_model_quant.tflite (tflite, 24328 bytes, 2 tensors)

sequential/conv2d/Conv2D i1 [12, 3, 3, 1]
000000 81 e4 31 bb 2f 40 14 1d 02 12 48 2f e2 2a 38 8c
       -127 -28 49 -69 47 64 20 29 2 18 72 47 -30 42 56 -116
000010 81 ca cf 81 9f 5a 4e 49 f7 37 14 04 47 ab cd 7f
       -127 -54 -49 -127 -97 90 78 73 -9 55 20 4 71 -85 -51 127
000020 1e 9d 3b 09 19 e4 8f 56 62 86 bf 7f 61 81 e5 47
       30 -99 59 9 25 -28 -113 86 98 -122 -65 127 97 -127 -27 71
000030 09 58 3f 0e 1c a8 7f d1 8a 75 c5 b5 61 dd d2 19
       9 88 63 14 28 -88 127 -47 -118 117 -59 -75 97 -35 -46 25
000040 37 6d 33 0e e6 58 2f 81 47 44 06 d9 5d 6d 81 99
       55 109 51 14 -26 88 47 -127 71 68 6 -39 93 109 -127 -103
000050 1b 81 a5 89 a9 fa c2 b9 01 8e 45 4e 1d 09 01 dd
       27 -127 -91 -119 -87 -6 -62 -71 1 -114 69 78 29 9 1 -35
000060 89 af 81 1e 78 74 33 40 98 49 07 81
       -119 -81 -127 30 120 116 51 64 -104 73 7 -127

sequential/dense/MatMul i1 [10, 2028] scale=0.010350122 zero_point=0
000000 03 fe 08 04 fe 04 04 fc 01 fe 04 04 00 ff 01 03
       0.031050365 -0.020700244 0.08280098 0.04140049 -0.020700244 0.04140049 0.04140049 -0.04140049 0.010350122 -0.020700244 0.04140049 0.04140049 0.0 -0.010350122 0.010350122 0.031050365
000010 fd 07 01 ff fc fd 02 02 fe ff f1 fb f1 ff fd fa
       -0.031050365 0.072450854 0.010350122 -0.010350122 -0.04140049 -0.031050365 0.020700244 0.020700244 -0.020700244 -0.010350122 -0.15525183 -0.05175061 -0.15525183 -0.010350122 -0.031050365 -0.06210073
000020 07 00 ff fb f1 fd f1 f8 ed 00 ff f9 e8 01 05 fb
       0.072450854 0.0 -0.010350122 -0.05175061 -0.15525183 -0.031050365 -0.15525183 -0.08280098 -0.19665232 0.0 -0.010350122 -0.072450854 -0.24840292 0.010350122 0.05175061 -0.05175061
000030 f9 08 f6 ef f6 ec fa ef f2 ff 07 eb eb 06 f1 de
       -0.072450854 0.08280098 -0.10350122 -0.17595208 -0.10350122 -0.20700245 -0.06210073 -0.17595208 -0.14490171 -0.010350122 0.072450854 -0.21735257 -0.21735257 0.06210073 -0.15525183 -0.35190415
000040 f2 e9 ea f5 02 fd 08 f4 e7 12 e7 e5 ef ea fc 00
       -0.14490171 -0.23805282 -0.22770269 -0.113851346 0.020700244 -0.031050365 0.08280098 -0.12420146 -0.25875306 0.1863022 -0.25875306 -0.2794533 -0.17595208 -0.22770269 -0.04140049 0.0
000050 f7 04 01 f6 e9 0c e8 f4 ec ef f0 ea 03 02 06 fa
       -0.0931511 0.04140049 0.010350122 -0.10350122 -0.23805282 0.12420146 -0.24840292 -0.12420146 -0.20700245 -0.17595208 -0.16560195 -0.22770269 0.031050365 0.020700244 0.06210073 -0.06210073
000060 e3 0a ee e2 ee ef fc ea 03 fc 0b f4 e5 fe e8 dd
       -0.30015355 0.10350122 -0.1863022 -0.31050366 -0.1863022 -0.17595208 -0.04140049 -0.22770269 0.031050365 -0.04140049 0.113851346 -0.12420146 -0.2794533 -0.020700244 -0.24840292 -0.36225426
000070 e8 e5 e8 f3 f0 00 fd eb f0 fd e9 fd ef ed f5 f1
       -0.24840292 -0.2794533 -0.24840292 -0.13455158 -0.16560195 0.0 -0.031050365 -0.21735257 -0.16560195 -0.031050365 -0.23805282 -0.031050365 -0.17595208 -0.19665232 -0.113851346 -0.15525183
000080 00 01 01 f4 f1 02 f1 ec f5 f3 fe f7 fa fc 00 f1
       0.0 0.010350122 0.010350122 -0.12420146 -0.15525183 0.020700244 -0.15525183 -0.20700245 -0.113851346 -0.13455158 -0.020700244 -0.0931511 -0.06210073 -0.04140049 0.0 -0.15525183
000090 fc 02 fe 01 fa fb 04 f8 03 fe 05 f6 05 0a 01 05
       -0.04140049 0.020700244 -0.020700244 0.010350122 -0.06210073 -0.05175061 0.04140049 -0.08280098 0.031050365 -0.020700244 0.05175061 -0.10350122 0.05175061 0.10350122 0.010350122 0.05175061
0000a0 00 0c 02 00 04 ff fe 01 ef ff ec fb ef f7 fc 01
       0.0 0.12420146 0.020700244 0.0 0.04140049 -0.010350122 -0.020700244 0.010350122 -0.17595208 -0.010350122 -0.20700245 -0.05175061 -0.17595208 -0.0931511 -0.04140049 0.010350122
0000b0 00 04 05 02 f4 05 f1 f0 f5 f1 ec f2 e6 05 06 ec
       0.0 0.04140049 0.05175061 0.020700244 -0.12420146 0.05175061 -0.15525183 -0.16560195 -0.113851346 -0.15525183 -0.20700245 -0.14490171 -0.26910317 0.05175061 0.06210073 -0.20700245
0000c0 07 06 02 03 ff fa f3 ee ff fb 03 ec f8 f9 fa f8
       0.072450854 0.06210073 0.020700244 0.031050365 -0.010350122 -0.06210073 -0.13455158 -0.1863022 -0.010350122 -0.05175061 0.031050365 -0.20700245 -0.08280098 -0.072450854 -0.06210073 -0.08280098
0000d0 02 f6 ea 02 ee fd 07 fa f2 f6 f9 f5 f9 f9 ff fa
       0.020700244 -0.10350122 -0.22770269 0.020700244 -0.1863022 -0.031050365 0.072450854 -0.06210073 -0.14490171 -0.10350122 -0.072450854 -0.113851346 -0.072450854 -0.072450854 -0.010350122 -0.06210073
0000e0 f3 fe 05 fc 00 f3 fb ef fb f7 06 f9 fd 00 0a f0
       -0.13455158 -0.020700244 0.05175061 -0.04140049 0.0 -0.13455158 -0.05175061 -0.17595208 -0.05175061 -0.0931511 0.06210073 -0.072450854 -0.031050365 0.0 0.10350122 -0.16560195
0000f0 02 06 fa f0 f5 f7 01 f8 05 fd 0a f2 fe 06 fb f3
       0.020700244 0.06210073 -0.06210073 -0.16560195 -0.113851346 -0.0931511 0.010350122 -0.08280098 0.05175061 -0.031050365 0.10350122 -0.14490171 -0.020700244 0.06210073 -0.05175061 -0.13455158
