hello_tvm/c_runtime_graph_runner/kws.tflite (tflite, 823832 bytes, 35 tensors)

model/conv2d/BiasAdd/ReadVariableOp f4 [54]
-0.619565 -1.3795757 -0.9867167 -0.92727053 -1.0216877 -0.1730709 -0.89678806 -0.60612065
-1.0450695 -0.020699702 0.14613126 0.42672703 0.43938032 -1.2756063 -0.5837297 0.05422957
-0.86935884 -1.3034116 -0.7623212 0.47839725 -1.4164189 0.4131775 -0.29975253 -0.5934702
-0.81973493 -1.1255904 -1.3629096 -1.0420613 -0.88198906 -1.7082964 0.36066735 -0.76224947
-1.0255742 -1.3939009 0.11221658 -0.55285555 -1.2059039 -1.5151868 -0.6731771 -0.51482815
-0.90442973 -0.5953441 -1.3492327 -0.032863703 -1.5210727 0.51791286 -1.6957994 -0.468124
-0.7553143 0.1716765 -1.5483403 0.26948464 -0.4653042 -0.8027638
00000000: d09b 1ebf f095 b0bf 7799 7cbf 9a61 6dbf
00000010: aac6 82bf 7f39 31be e793 65bf b92a 1bbf
00000020: d6c4 85bf 6c92 a9bc 6fa3 153e f77b da3e
00000030: 75f6 e03e 1147 a3bf 4f6f 15bf d31f 5e3d
00000040: 4d8e 5ebf 31d6 a6bf 7b27 43bf 7cf0 f43e
00000050: 374d b5bf 008c d33e 2a79 99be aaed 17bf
00000060: 26da 51bf 5913 90bf d273 aebf 4462 85bf
00000070: 09ca 61bf 75a9 dabf 64a9 b83e c822 43bf
00000080: 0446 83bf 586b b2bf ced1 e53d f187 0dbf
00000090: 0f5b 9abf a4f1 c1bf 5655 2cbf c7cb 03bf
000000a0: b588 67bf 7968 18bf a8b3 acbf 179c 06bd
000000b0: 83b2 c2bf f095 043f f40f d9bf f3ad efbe
000000c0: 475c 41bf f7cb 2f3e 0430 c6bf e4f9 893e
000000d0: 5a3c eebe ee81 4dbf

model/conv2d_1/BiasAdd/ReadVariableOp f4 [54]
-0.86477333 -2.7813582 1.4891001 -1.8214856 2.373595 -0.24961548 -2.376102 -1.5911828
-4.534688 -1.1152271 1.2696313 -1.056106 0.26367018 -3.908308 -2.2619588 0.9124067
-3.9915597 -2.307767 1.5751318 1.3618879 0.3014755 -1.3561555 -0.15313993 0.049632717
-0.57494867 -3.2000868 0.64352185 -4.8196273 -1.1550202 -1.907331 2.459468 0.69858915
2.6118636 -0.36876482 -0.2565033 0.5175957 -5.060187 -0.8000436 -2.6421332 -1.1105644
2.3080962 0.2264974 0.6596373 -1.2750206 -1.4112618 -3.0846982 3.0671623 -1.7130313
1.1455457 -0.37561518 -0.124164425 -5.0103717 -4.433662 -1.736556
00000000: c961 5dbf c601 32c0 d59a be3f 7126 e9bf
00000010: fbe8 1740 339b 7fbe 0e12 18c0 e1ab cbbf
00000020: 2a1c 91c0 c3bf 8ebf 4783 a23f 7b2e 87bf
00000030: c7ff 863e b821 7ac0 efc3 10c0 7c93 693f
00000040: b775 7fc0 74b2 13c0 eb9d c93f 5852 ae3f
00000050: ff5a 9a3e 8196 adbf b7d0 1cbe ad4b 4b3d
00000060: d62f 13bf 39ce 4cc0 d9bd 243f 633a 9ac0
00000070: b4d7 93bf 6c23 f4bf ec67 1d40 bdd6 323f
00000080: c628 2740 bece bcbe 6754 83be 2781 043f
00000090: 0ded a1c0 a8cf 4cbf b618 29c0 f926 8ebf
000000a0: d9b7 1340 efee 673e fddd 283f e033 a3bf
000000b0: 3aa4 b4bf b26b 45c0 634c 4440 9c44 dbbf
000000c0: 3ea1 923f a250 c0be eb49 febd f754 a0c0
000000d0: 8fe0 8dc0 7847 debf

model/conv2d_2/BiasAdd/ReadVariableOp f4 [55]
-3.309588 -2.1694038 -1.7786012 -1.7675625 3.7915187 -2.1382992 -1.3170522 -2.2978692
-3.9568155 -1.6586715 -2.8901756 -1.3322402 -0.03198487 -2.8273737 -2.8380847 -2.274246
-4.890043 -2.6694458 -0.7209575 -2.4755483 0.07504246 -3.7960014 -0.0008033577 -2.7751083
-3.9544878 -0.65654176 0.6039622 -0.56188136 -0.20649461 -2.774615 -2.4600253 -1.1812485
-0.465759 -2.6912532 -1.72366 -0.10089736 -1.2373376 -1.2089406 -2.2394764 -1.6580175
-0.9723202 -2.7469995 -2.6947503 -3.60819 -2.9435225 -1.3225825 -2.3293624 -0.2869808
0.38988388 -0.07246295 -3.9658542 0.5611155 -2.9897733 -3.1137028 -2.9331782
00000000: 4ad0 53c0 83d7 0ac0 34a9 e3bf 7d3f e2bf
00000010: 3ea8 7240 e5d9 08c0 2b95 a8bf 4a10 13c0
00000020: 773c 7dc0 594f d4bf a3f8 38c0 d986 aabf
00000030: 9102 03bd b1f3 34c0 2ea3 35c0 3f8d 11c0
00000040: 3b7b 9cc0 33d8 2ac0 ac90 38bf 626f 1ec0
00000050: dcaf 993d b0f1 72c0 6c98 52ba 609b 31c0
00000060: 5416 7dc0 1f13 28bf 449d 1a3f 75d7 0fbf
00000070: 5373 53be 4b93 31c0 0e71 1dc0 2733 97bf
00000080: f777 eebe 7e3d 2cc0 e4a0 dcbf 46a3 cebd
00000090: 1461 9ebf 91be 9abf 9553 0fc0 eb39 d4bf
000000a0: fae9 78bf d7ce 2fc0 ca76 2cc0 96ec 66c0
000000b0: ac62 3cc0 624a a9bf 4614 15c0 26ef 92be
000000c0: dc9e c73e 7567 94bd 8ed0 7dc0 44a5 0f3f
000000d0: 7258 3fc0 e846 47c0 31b9 3bc0

model/conv2d_3/BiasAdd/ReadVariableOp f4 [55]
-0.3465665 -1.0697898 -1.5782857 -1.181972 0.1410959 -2.393152 1.1869256 2.3399765
0.4904269 0.18052818 0.65444285 0.43336362 0.831434 1.6543444 0.83262724 -0.47445065
-2.6602867 -0.2538202 0.38163024 1.6853814 -1.8970627 -3.0345514 -0.4411391 -1.7755302
-0.7491378 0.018173236 -1.0103687 -1.1392704 -0.22235957 -1.0096542 -2.3384748 -0.24658898
-2.5178678 -0.67105305 -1.2579136 -1.367055 -1.3492079 -1.2275479 -3.7913098 -2.1833737
2.211047 -0.5178396 -3.5475783 0.22824983 -0.6570099 -1.31843 -1.8456999 2.0246875
0.6677303 1.03804 -1.6060511 -0.42271215 -1.18357 -3.06064 -1.0907005
00000000: 2a71 b1be dfee 88bf 4405 cabf dc4a 97bf
00000010: 727b 103e 6729 19c0 2eed 973f 2dc2 1540
00000020: 3c19 fb3e 61dc 383e 9189 273f d6e1 dd3e
00000030: dcd8 543f 8fc1 d33f 0f27 553f 32eb f2be
00000040: 2342 2ac0 b9f4 81be 0a65 c33e 94ba d73f
00000050: f3d2 f2bf 1736 42c0 fcdc e1be 9344 e3bf
00000060: 7fc7 3fbf 0ae0 943c c353 81bf 9dd3 91bf
00000070: 3ab2 63be 593c 81bf 92a9 15c0 d281 7cbe
00000080: bf24 21c0 22ca 2bbf 5003 a1bf a9fb aebf
00000090: d8b2 acbf 4a20 9dbf d2a4 72c0 65bc 0bc0
000000a0: cb81 0d40 2391 04bf 860b 63c0 53ba 693e
000000b0: cd31 28bf 50c2 a8bf e53f ecbf 7b94 0140
000000c0: 5ff0 2a3f 7fde 843f 1593 cdbf ba6d d8be
000000d0: 397f 97bf 87e1 43c0 139c 8bbf

model/conv2d_4/BiasAdd/ReadVariableOp f4 [56]
-0.55090827 0.36754277 -0.9070481 -2.2272096 -1.0222301 -1.2287886 0.18132539 -1.5510794
-0.8173662 -1.0920734 0.97757024 -0.926553 -1.1916523 -0.26275963 -1.193203 -1.7348119
0.11391232 -1.4853787 -1.1118312 -0.5560464 -2.1642146 -0.3340919 0.25400507 -0.6378042
-0.5737312 -2.240118 -1.7099216 -2.7459707 -0.08590468 -1.6551459 -0.97683233 -0.31414953
-2.6267345 0.04489989 -1.2038236 -2.1522062 -1.1966046 -1.0516628 -0.55969787 2.1233208
-1.1659045 -1.7060355 -1.1368122 -0.096049964 -0.07498646 -1.3978688 0.72819614 -2.1076014
-1.7361289 -1.4031632 -1.8685006 -1.2008225 3.407022 -1.3706688 -0.3670201 -1.5993955
00000000: 5308 0dbf 912e bc3e 4e34 68bf 9a8a 0ec0
00000010: 70d8 82bf f248 9dbf 5dad 393e c589 c6bf
00000020: e93e 51bf 10c9 8bbf 0b42 7a3f 9432 6dbf
00000030: 1088 98bf 6e88 86be e0ba 98bf 510e debf
00000040: dd4a e93d e420 bebf 7c50 8ebf 0f59 0ebf
00000050: 7e82 0ac0 180e abbe f40c 823e 2347 23bf
00000060: 0ce0 12bf 185e 0fc0 b6de dabf fcbd 2fc0
00000070: cbee afbd d2db d3bf af11 7abf 35d8 a0be
00000080: 6b1c 28c0 f2e8 373d e416 9abf bfbd 09c0
00000090: 572a 99bf e39c 86bf 5c48 0fbf 7de4 0740
000000a0: 5c3c 95bf 5f5f dabf 1083 91bf d8b5 c4bd
000000b0: 8092 99bd 5ded b2bf 106b 3a3f f1e2 06c0
000000c0: 7939 debf da9a b3bf 072b efbf 8db4 99bf
000000d0: a60c 5a40 1372 afbf 0fea bbbe feb8 ccbf

model/conv2d_5/BiasAdd/ReadVariableOp f4 [56]
-1.3234918 -1.3155702 0.28078362 -0.27734026 -1.0203847 -1.1543294 -0.71964043 -0.72623
-0.17569476 -0.65753317 -0.588121 -0.9766474 -0.25846225 -0.49352294 -1.0479912 -0.90664035
-0.15968454 -0.58488786 -1.4131112 -0.6675748 -1.7291356 -1.3905513 -0.042109556 -1.5756006
-0.06155673 -1.5998327 -1.1659471 -0.35152912 -0.5497078 -0.03967853 -0.66169184 -0.6856345
-2.1198006 -0.399347 -0.053610586 -0.98639506 -1.657746 -1.8658061 0.04528704 -2.0716975
-0.97797596 -0.2539237 -1.0230997 -1.2927998 -0.6372056 0.38434646 -1.0317562 -1.4050899
-1.1729882 -1.6753956 -2.534347 0.6066462 -1.438631 0.4174362 -0.14575298 -1.038557
00000000: 2e68 a9bf 9b64 a8bf dfc2 8f3e 8bff 8dbe
00000010: f79b 82bf 11c1 93bf 5b3a 38bf 36ea 39bf
00000020: 54e9 33be 1854 28bf 198f 16bf 9005 7abf
00000030: 2a55 84be 0aaf fcbe 9324 86bf 9519 68bf
00000040: 5884 23be 36bb 15bf d4e0 b4bf 2fe6 2abf
00000050: 5154 ddbf 96fd b1bf 127b 2cbd 48ad c9bf
00000060: e922 7cbd 51c7 ccbf c13d 95bf a0fb b3be
00000070: a6b9 0cbf f485 22bd a364 29bf be85 2fbf
00000080: d0aa 07c0 3677 ccbe c696 5bbd 6384 7cbf
00000090: 0531 d4bf bcd2 eebf e77e 393d b196 04c0
000000a0: a25c 7abf 4a02 82be eef4 82bf 777a a5bf
000000b0: e81f 23bf 0fc9 c43e 9610 84bf fcd9 b3bf
000000c0: 7a24 96bf 5d73 d6bf be32 22c0 2a4d 1b3f
000000d0: 1025 b8bf 33ba d53e 4540 15be 70ef 84bf

model/conv2d_6/BiasAdd/ReadVariableOp f4 [57]
0.9021315 -0.16341862 -0.25091594 1.1758716 -0.22824074 0.1658443 -0.5448082 1.3118652
0.12699997 -0.115847595 0.308989 -0.394662 0.7785251 -0.42906615 -0.59769595 1.2677455
-0.41829506 -0.081885695 0.72185165 -0.030672632 1.1438266 1.1040817 0.6457688 -0.60932595
-0.4822875 1.4250728 -0.06512718 -0.741851 0.7147632 -0.5475035 -0.516458 -0.010797828
-1.134229 -0.2972002 1.1054668 1.3808409 -0.86934245 -0.042929605 0.15808976 0.06265189
1.0698435 -1.3650708 0.3452216 -1.0098504 -0.46444917 -0.90677726 0.19757879 -0.54049134
0.07319768 -0.23913306 -0.87528324 -0.40972152 -0.21869259 1.3182416 -0.16138771 -0.73217934
0.8373331
00000000: 17f2 663f 3657 27be 0e78 80be f682 963f
00000010: f1b7 69be 17d3 293e 8d78 0bbf 33eb a73f
00000020: 480c 023e 8141 edbd ce33 9e3e 2311 cabe
00000030: 6c4d 473f 8fae dbbe 9a02 19bf 7c45 a23f
00000040: c52a d6be b0b3 a7bd 45cb 383f 2c45 fbbc
00000050: e968 923f 8d52 8d3f 1b51 253f c9fc 1bbf
00000060: 63ee f6be c968 b63f 6661 85bd f2e9 3dbf
00000070: b9fa 363f 3029 0cbf 9736 04bf 60e9 30bc
00000080: 6a2e 91bf a02a 98be f07f 8d3f 65bf b03f
00000090: 3a8d 5ebf f4d6 2fbd 48e2 213e a24f 803d
000000a0: a2f0 883f a4ba aebf e3c0 b03e c742 81bf
000000b0: 48cc edbe 8e22 68bf 1852 4a3e a45d 0abf
000000c0: aae8 953d 4cdf 74be 9012 60bf 05c7 d1be
000000d0: f3f0 5fbe 24bc a83f d242 25be 1b70 3bbf
000000e0: 765b 563f

model/conv2d_7/BiasAdd/ReadVariableOp f4 [57]
1.046009 -0.79388225 4.0450683 2.0043912 0.5783392 0.47756344 1.6252465 0.15759912
0.9232271 0.65947217 -1.2198048 0.8117713 0.33336365 0.09333499 0.08793652 -1.3334975
2.0576541 -0.3166625 0.2625172 2.6196964 3.0902169 0.56525576 1.622223 -0.35196155
-0.23083028 1.3278909 -0.09089619 2.078543 -0.4404922 0.8580068 -0.32028043 -0.13020764
-0.13410012 2.9509532 0.85761577 1.8837439 -0.7696913 -1.2500832 0.29419115 0.84999824
-1.4190643 -0.053201776 3.1132374 2.1483636 2.113571 1.2289222 -0.3009469 -1.1138426
-0.5127834 2.3331609 0.022094263 0.24272443 0.77997607 0.1476875 1.2998145 0.38881186
0.19478098
00000000: 9fe3 853f de3b 4bbf 3371 8140 f247 0040
00000010: 0a0e 143f 3283 f43e 1408 d03f aa61 213e
00000020: 9c58 6c3f 2bd3 283f 9022 9cbf 3ed0 4f3f
00000030: a4ae aa3e 6a26 bf3d 1018 b43d 0cb0 aabf
00000040: 9bb0 0340 9621 a2be a868 863e 1ba9 2740
00000050: 1dc6 4540 9ab4 103f 01a5 cf3f 4e34 b4be
00000060: c65e 6cbe 54f8 a93f c827 babd d906 0540
00000070: 3288 e1be 55a6 5b3f ccfb a3be 2755 05be
00000080: 8b51 09be 6bdc 3c40 b58c 5b3f 851e f13f
00000090: 7d0a 45bf ba02 a0bf 39a0 963e 7c99 593f
000000a0: e6a3 b5bf 1bea 59bd 483f 4740 ca7e 0940
000000b0: bf44 0740 534d 9d3f b615 9abe 6592 8ebf
000000c0: c645 03bf 8252 1540 07ff b43c c18c 783e
000000d0: 83ac 473f 643b 173e 5260 a63f 5912 c73e
000000e0: aa74 473e

model/dense/BiasAdd/ReadVariableOp f4 [128]
0.396359 0.51408 0.4197881 0.35943785 0.3227592 0.44318506 0.2863408 0.5831332
0.5159572 0.32214522 0.40246335 0.4490729 0.46942788 0.37676197 0.3895873 0.36120516
0.22150452 0.49399644 0.4458309 0.47208625 0.42292246 0.1761701 0.3513277 0.37764832
0.36007208 -0.00555963 0.30737564 0.3765872 0.5153328 0.6066171 0.28158608 0.49984136
0.49104643 0.40923712 0.3109356 -0.2691007 0.46298623 0.45681015 0.43417653 -0.04328202
0.434309 0.4167095 0.4797913 0.42556188 0.3712272 0.42695802 0.51735735 0.4191875
0.3088668 0.07047414 0.3717046 0.38588765 0.42872217 0.41177684 0.48108792 0.12635949
-0.049972214 -0.07672802 0.48394793 0.4371735 0.33489427 0.4130578 0.5042955 0.29240897
-0.13197656 -0.36388144 0.43554407 0.45753732 0.51172876 0.38082165 0.333278 -0.050222542
0.44645888 0.32610133 0.49873272 0.4415853 -0.009418412 0.37674 0.54490703 0.47279274
0.2573125 0.53959274 0.5152947 0.4835833 0.3243263 0.1815601 0.47782722 -0.059017103
0.4944574 0.5177891 0.5234947 0.3869116 0.01145493 0.39341524 0.48968276 0.22208779
0.48619953 0.4298441 -0.086873345 0.37476647 0.46912482 0.4296825 0.46567798 0.3866905
0.26055926 0.51406735 0.47244713 0.46209905 0.3341894 -0.20336844 0.34478137 0.39517537
0.3909077 0.35186547 0.33009773 0.20498078 0.52328795 0.34337258 0.4330375 0.46519852
0.27641955 0.41067004 0.49507472 0.48743814 0.34398726 0.43114668 0.41333893 -0.039185334
00000000: 91ef ca3e bf9a 033f 77ee d63e 3d08 b83e
00000010: b240 a53e 27e9 e23e 439b 923e 3848 153f
00000020: c515 043f 38f0 a43e ad0f ce3e e2ec e53e
00000030: da58 f03e f2e6 c03e fd77 c73e e2ef b83e
00000040: 15d2 623e 1aed fc3e f343 e43e 4ab5 f13e
00000050: 4b89 d83e ef65 343e 39e1 b33e 1f5b c13e
00000060: 5e5b b83e 8f2d b6bb 5760 9d3e 0ad0 c03e
00000070: daec 033f 424b 1b3f 0d2c 903e 35eb ff3e
00000080: 706a fb3e 8787 d13e f332 9f3e 91c7 89be
00000090: 880c ed3e 05e3 e93e 634c de3e 7d48 31bd
000000a0: c05d de3e f35a d53e 35a7 f53e 3fe3 d93e
000000b0: 7e11 be3e 3e9a da3e 8871 043f be9f d63e
000000c0: ca23 9e3e bf54 903d 1150 be3e 1193 c53e
000000d0: 7981 db3e 6ad4 d23e 2851 f63e 6264 013e
000000e0: aaaf 4cbd 9523 9dbd 06c8 f73e 34d5 df3e
000000f0: 4377 ab3e 507c d33e 8319 013f a1b6 953e
00000100: dd24 07be ab4e babe a2ff de3e 5542 ea3e
00000110: a800 033f 0efb c23e 6aa3 aa3e 27b6 4dbd
00000120: 4296 e43e c1f6 a63e e559 ff3e 7817 e23e
00000130: af4f 1abc 11e4 c03e 077f 0b3f e411 f23e
00000140: 77be 833e c022 0a3f 5aea 033f 3b98 f73e
00000150: 190e a63e e4ea 393e c5a5 f43e ebbb 71bd
00000160: 8529 fd3e d48d 043f c003 063f 4719 c63e
00000170: 75ad 3b3c b96d c93e b3b7 fa3e fb6a 633e
00000180: 25ef f83e 8714 dc3e a7ea b1bd 64e1 bf3e
00000190: 2131 f03e 58ff db3e 586d ee3e 4cfc c53e
000001a0: 0668 853e eb99 033f 97e4 f13e 3f98 ec3e
000001b0: df1a ab3e d13f 50be 2f87 b03e 6d54 ca3e
000001c0: 0e25 c83e b627 b43e 9202 a93e 7be6 513e
000001d0: 33f6 053f 88ce af3e 17b7 dd3e 802e ee3e
000001e0: dd86 8d3e 5843 d23e 6f7a fd3e 7e91 f93e
000001f0: 191f b03e 42bf dc3e 29a1 d33e cd80 20bd

model/batch_normalization_1/FusedBatchNormV3 f4 [54]
3.489973 4.965688 3.7055626 14.8591795 20.85628 2.5592556 12.81138 9.968181
8.434462 2.9651024 2.1595156 2.4130056 2.0279741 34.361378 5.186657 2.21017
3.3347375 13.257873 12.8447895 1.8497176 12.47634 2.1576157 2.2658525 7.170754
9.012768 19.271324 6.14242 20.608606 3.196293 7.7055235 1.7542037 8.213194
17.396906 18.83471 1.5726086 8.731963 8.950189 16.749222 12.8763275 4.151167
11.872648 13.828636 4.2222576 2.8442662 17.95793 1.6324649 9.479441 2.533158
5.5998635 1.604685 25.235147 2.0234401 8.22289 3.2770784
00000000: b85b 5f40 ebe6 9e40 f027 6d40 33bf 6d41
00000010: a9d9 a641 d8ca 2340 6afb 4c41 ab7d 1f41
00000020: 8ef3 0641 3dc4 3d40 8135 0a40 af6e 1a40
00000030: 54ca 0140 0d72 0942 18f9 a540 6d73 0d40
00000040: 576c 5540 3f20 5441 4284 4d41 8cc3 ec3f
00000050: 179f 4741 6016 0a40 ba03 1140 d176 e540
00000060: 4c34 1041 ac2b 9a41 b48e c440 6dde a441
00000070: 1190 4c40 a693 f640 bf89 e03f 3e69 0341
00000080: dd2c 8b41 7cad 9641 3d4b c93f 1fb6 0b41
00000090: f933 0f41 68fe 8541 7005 4e41 5cd6 8440
000000a0: 5ef6 3d41 1842 5d41 bc1c 8740 7508 3640
000000b0: d7a9 8f41 9cf4 d03f caab 1741 431f 2240
000000c0: 1532 b340 5166 cd3f 95e1 c941 0b80 0140
000000d0: f590 0341 a7bb 5140

model/batch_normalization_1/FusedBatchNormV31 f4 [54]
-0.24424249 -1.8062165 -1.088373 -0.38686287 -0.0858137 -0.75139505 -0.12760395 -0.15735587
-0.11341661 0.039744884 -0.9446758 -1.2228664 -1.0465167 -0.21343207 -0.15491429 -0.0130032
-0.11695197 0.080381155 -0.24032559 -1.2080334 -0.35239792 -0.9912209 -0.05216846 -0.15236574
-0.11933628 -0.11555566 -1.4439468 -0.243732 -1.1106594 -1.9905024 -0.9022997 -0.25477034
-0.2331188 -0.19776578 -0.13264027 -0.16295648 0.0024654865 -0.22345152 -0.21064307 -0.80014706
-0.14898616 -0.12575853 -1.7853966 -0.18580711 -0.21209216 -0.9065342 -2.1781015 -0.17626166
-0.03489864 -0.8056183 -0.24832287 -0.9617286 -0.15524802 -0.9166059
00000000: b41a 7abe 1a32 e7bf ce4f 8bbf e412 c6be
00000010: 18bf afbd 6d5b 40bf 9caa 02be e621 21be
00000020: f846 e8bd 88cb 223d 46d6 71bf e386 9cbf
00000030: 42f4 85bf f08d 5abe daa1 1ebe 600b 55bc
00000040: 8484 efbd e09e a43d e917 76be d7a0 9abf
00000050: 806d b4be a7c0 7dbf 98ae 55bd c405 1cbe
00000060: 9466 f4bd 72a8 ecbd 40d3 b8bf e294 79be
00000070: 162a 8ebf c8c8 febf 1dfd 66bf 4271 82be
00000080: b2b6 6ebe 1d83 4abe dad2 07be 10de 26be
00000090: 0094 213b 7ad0 64be d1b2 57be 70d6 4cbf
000000a0: d48f 18be d8c6 00be e087 e4bf 3844 3ebe
000000b0: b02e 59be a012 68bf 0466 0bc0 f07d 34be
000000c0: e0f1 0ebd 003d 4ebf 5a48 7ebe d833 76bf
000000d0: 56f9 1ebe afa6 6abf

model/batch_normalization_2/FusedBatchNormV3 f4 [54]
0.10457464 0.100280255 0.20142506 0.116870455 0.08111554 0.1271733 0.11162124 0.098834105
0.13495803 0.0804787 0.08479813 0.109052226 0.12530142 0.092043936 0.12550965 0.10176709
0.09686141 0.139055 0.09259769 0.06964801 0.08601462 0.09684292 0.10501833 0.08686383
0.1066581 0.14583899 0.11809347 0.08939495 0.103483245 0.10923065 0.12657721 0.12438953
0.08590367 0.11139897 0.11114629 0.08210065 0.06330469 0.13159479 0.11396695 0.08413688
0.10386035 0.09704056 0.10461069 0.11019047 0.10657683 0.12451901 0.14307536 0.08445836
0.08295098 0.1025731 0.11569463 0.078149945 0.06365396 0.11775941
00000000: 3b2b d63d bc5f cd3d 5f42 4e3e c759 ef3d
00000010: e71f a63d b839 023e ad99 e43d 8969 ca3d
00000020: 7032 0a3e 04d2 a43d a4aa ad3d c656 df3d
00000030: 044f 003e 8881 bc3d 9a85 003e 446b d03d
00000040: 465f c63d 6f64 0e3e dca3 bd3d 9ea3 8e3d
00000050: 6f28 b03d 9555 c63d da13 d73d aae5 b13d
00000060: 906f da3d d156 153e fdda f13d b314 b73d
00000070: 06ef d33d 52b4 df3d 759d 013e f0bf fe3d
00000080: 43ee af3d 2525 e43d aba0 e33d 6324 a83d
00000090: e4a5 813d c9c0 063e 8167 e93d f54f ac3d
000000a0: bcb4 d43d 33bd c63d 213e d63d 8bab e13d
000000b0: f444 da3d d303 ff3d 5982 123e 81f8 ac3d
000000c0: 34e2 a93d d811 d23d 4ef1 ec3d 140d a03d
000000d0: 025d 823d d82b f13d

model/batch_normalization_2/FusedBatchNormV31 f4 [54]
-0.36334985 -0.34875935 -0.6292149 -0.2914292 -0.71352637 -0.5010197 -0.11624926 -0.38521844
-0.26696894 -0.10362247 -0.420932 -0.24023192 -1.0394934 -0.13635206 -1.2515138 -0.55039865
-0.24626525 -0.24719854 -0.3825018 -0.6216974 -0.3975459 -0.37785769 -0.6445746 -0.21289968
-0.4725271 -0.1969491 -1.1068206 -0.42616642 -0.9124541 -0.27653533 -0.6918089 -0.53179586
-1.1150974 -0.4517778 -0.5156909 -0.6093856 -0.57368153 -0.21851145 -0.23114312 -0.19663978
-0.44735372 -0.55007297 -0.8424543 -0.43224016 -0.2253981 -0.509219 -1.3080277 -0.4817453
-0.67876345 -0.243461 -0.8661231 -0.58171016 -0.4773039 -0.17305355
00000000: fe08 babe 9690 b2be 3a14 21bf 3536 95be
00000010: aaa9 36bf d442 00bf 1814 eebd 5a3b c5be
00000020: 27b0 88be 0438 d4bd 6684 d7be 5bff 75be
00000030: 1f0e 85bf e09f 0bbe 9b31 a0bf ede6 0cbf
00000040: f52c 7cbe 9d21 7dbe 47d7 c3be 9027 1fbf
00000050: 238b cbbe 9076 c1be d702 25bf 6002 5abe
00000060: 12ef f1be 06ad 49be 4cac 8dbf 7c32 dabe
00000070: 9896 69bf 0a96 8dbe 631a 31bf c623 08bf
00000080: 83bb 8ebf 6b4f e7be 5204 04bf b200 1cbf
00000090: cbdc 12bf 77c1 5fbe c8b0 6cbe f05b 49be
000000a0: 8c0b e5be 95d1 0cbf 16ab 57bf 954e ddbe
000000b0: c2ce 66be 2d5c 02bf 746d a7bf 52a7 f6be
000000c0: 71c3 2dbf d74d 79be 3eba 5dbf f5ea 14bf
000000d0: 2d61 f4be f334 31be

model/batch_normalization_3/FusedBatchNormV3 f4 [55]
0.20278314 0.13845612 0.16861366 0.13410126 0.13369511 0.15700352 0.1578597 0.16816235
0.2178599 0.171436 0.22148238 0.119448364 0.17712726 0.16989635 0.20072865 0.1581999
0.15884386 0.17628387 0.15695885 0.167579 0.19891813 0.22810286 0.14768095 0.14674723
0.26946115 0.17317793 0.16607122 0.18054757 0.16400655 0.15802278 0.16737416 0.18711512
0.1332802 0.15814027 0.18616657 0.21208076 0.18020722 0.14548755 0.12984134 0.21058089
0.17892511 0.18770349 0.16474022 0.15972525 0.19190907 0.12874667 0.19635788 0.17841767
0.1450459 0.19379297 0.18567663 0.1709398 0.13604131 0.19629365 0.22859837
00000000: 62a6 4f3e 71c7 0d3e 0fa9 2c3e d751 093e
00000010: 5fe7 083e 88c5 203e f9a5 213e c032 2c3e
00000020: aa16 5f3e eb8c 2f3e 47cc 623e 58a1 f43d
00000030: d960 353e 4ff9 2d3e d08b 4d3e 28ff 213e
00000040: f7a7 223e c283 343e d2b9 203e d499 2b3e
00000050: 32b1 4b3e cc93 693e ad39 173e e844 163e
00000060: d0f6 893e 8e55 313e 930e 2a3e 76e1 383e
00000070: 55f1 273e b9d0 213e 2264 2b3e 1b9b 3f3e
00000080: 9b7a 083e 86ef 213e 73a2 3e3e b32b 593e
00000090: 3e88 383e b0fa 143e 21f5 043e 84a2 573e
000000a0: 2538 373e 5835 403e a9b1 283e 048f 233e
000000b0: d083 443e 2bd6 033e 0a12 493e 1fb3 363e
000000c0: ea86 143e aa71 463e 0422 3e3e d80a 2f3e
000000d0: 6a4e 0b3e 3401 493e b115 6a3e

model/batch_normalization_3/FusedBatchNormV31 f4 [55]
-0.5597118 -0.34743977 -0.55911225 -0.27531284 -1.5259771 -0.32000223 -0.70607626 -0.582104
-0.09791952 -0.68172467 0.04643148 -0.3160079 -0.404007 -0.4530719 -0.24917503 -0.57122636
-0.50403273 -0.054578543 -0.81949264 -0.53717375 -0.7355957 -0.41822875 -0.54520047 -0.2898327
-0.5392479 -0.51771426 -0.8101901 -0.7936425 -0.98450863 -0.10795835 -0.5232808 -0.2523183
-0.6620446 -0.45546576 -0.51630527 -1.0129142 -0.8300511 -0.6158306 -0.45588857 -0.36529648
-0.43938908 -0.4446359 -0.51614004 -0.4063763 -0.16682109 -0.40861702 -0.02648905 -0.6645294
-0.5137035 -0.9369324 0.008109331 -1.0455573 -0.68469566 -0.28106403 -0.10754037
00000000: 4649 0fbf a0e3 b1be fb21 0fbf cef5 8cbe
00000010: 3853 c3bf 55d7 a3be 6ac1 34bf c504 15bf
00000020: 088a c8bd 8285 2ebf f02e 3e3d cacb a1be
00000030: 01da cebe 0af9 e7be bd27 7fbe e43b 12bf
00000040: 4a08 01bf c08d 5fbd 45ca 51bf 3884 09bf
00000050: 0050 3cbf 1422 d6be 4292 0bbf f464 94be
00000060: 260c 0abf ec88 04bf 9e68 4fbf 282c 4bbf
00000070: c208 7cbf 4419 ddbd bbf5 05bf dd2f 81be
00000080: c17b 29bf cf32 e9be 952c 04bf 2ca7 81bf
00000090: 3b7e 54bf 13a7 1dbf 3a6a e9be 2408 bbbe
000000a0: 9bf7 e0be 51a7 e3be c121 04bf 8e10 d0be
000000b0: 26d3 2abe 4036 d1be 90ff d8bc 991e 2abf
000000c0: 1382 03bf cdda 6fbf 00dd 043c d2d4 85bf
000000d0: 3748 2fbf a0e7 8fbe 203e dcbd

model/batch_normalization_4/FusedBatchNormV3 f4 [55]
0.15574065 0.10673443 0.13561334 0.16601235 0.112484194 0.0982545 0.117448084 0.11781257
0.14752322 0.17181118 0.091469906 0.141268 0.117374994 0.12770164 0.102665626 0.13388272
0.08665151 0.13271157 0.18656965 0.11011696 0.11651256 0.13490595 0.14509873 0.18521982
0.17602575 0.15369749 0.16453642 0.24812333 0.15198962 0.16259533 0.09740159 0.12227626
0.11369852 0.15293123 0.15039629 0.16284159 0.11332248 0.09609471 0.10845364 0.20920312
0.18060243 0.1190482 0.12723655 0.22265784 0.1513873 0.16273928 0.110244825 0.14481628
0.11476248 0.12859252 0.098603666 0.14603591 0.13866132 0.14501959 0.10277812
00000000: 7a7a 1f3e 9597 da3d 39de 0a3e 24ff 293e
00000010: 1d5e e63d a839 c93d 9f88 f03d b747 f13d
00000020: 5410 173e 45ef 2f3e 9354 bb3d 8fa8 103e
00000030: 4d62 f03d 38c4 023e 5b42 d23d 8d18 093e
00000040: 5976 b13d 8be5 073e 1d0c 3f3e 0085 e13d
00000050: 239e ee3d c924 0a3e c394 143e 44aa 3d3e
00000060: 1840 343e e062 1d3e 3c7c 283e 0b14 7e3e
00000070: 2ba3 1b3e 647f 263e 7c7a c73d fa6b fa3d
00000080: c5da e83d 019a 1c3e 7c01 1a3e f2bf 263e
00000090: 9e15 e83d 4ecd c43d f11c de3d 5839 563e
000000a0: d8ef 383e 8bcf f33d 4c4a 023e 6b00 643e
000000b0: 4605 1b3e 20a5 263e 0ac8 e13d b84a 143e
000000c0: 9708 eb3d c2ad 033e b8f0 c93d 708a 153e
000000d0: 3cfd 0d3e 0480 143e 567d d23d

model/batch_normalization_4/FusedBatchNormV31 f4 [55]
-0.3763411 -0.34797567 -0.81213677 -0.80572116 -0.927786 -0.6448975 -1.3552468 -1.3969222
-0.9236279 -0.9099514 -0.7580544 -0.37460628 -0.8012993 -0.78975034 -0.07647443 -0.90904737
-1.0263423 -0.43326855 -0.8447597 -0.13728917 -0.6262845 -0.53084093 -0.8847302 -0.354218
-0.5860114 -0.47741818 -0.7324665 -0.36628377 -0.79870534 -0.77509105 -0.7165935 -0.08664507
-0.5865619 -0.49836707 -0.371552 -0.26090777 -0.557145 -0.72739375 -0.48583388 -0.3341432
-1.4785047 -0.5375638 -0.85527027 -1.2080315 -0.8142566 -0.44751158 -0.4278931 -0.8772801
-0.7497053 -0.97506726 -0.66093284 -0.4869763 -0.48707938 -0.5234761 -0.9137608
00000000: c8af c0be de29 b2be 32e8 4fbf be43 4ebf
00000010: 6283 6dbf 0118 25bf ba78 adbf 59ce b2bf
00000020: e172 6cbf 93f2 68bf da0f 42bf 65cc bfbe
00000030: f321 4dbf 142d 4abf a09e 9cbd 54b7 68bf
00000040: 2f5f 83bf 60d5 ddbe 2c42 58bf 8895 0cbe
00000050: 2e54 20bf 31e5 07bf ae7d 62bf 105c b5be
00000060: d804 16bf 2870 f4be ed82 3bbf 8c89 bbbe
00000070: f477 4cbf 5e6c 46bf ac72 37bf f872 b1bd
00000080: ec28 16bf f829 ffbe 103c bebe b495 85be
00000090: 0ea1 0ebf 7a36 3abf 38bf f8be d114 abbe
000000a0: a43f bdbf c89d 09bf fef2 5abf c7a0 9abf
000000b0: 1f73 50bf 3d20 e5be ce14 dbbe 6e95 60bf
000000c0: b0ec 3fbf 029e 79bf e532 29bf f554 f9be
000000d0: 7862 f9be 8802 06bf 3aec 69bf

model/batch_normalization_5/FusedBatchNormV3 f4 [56]
0.16652274 0.18188699 0.151099 0.13198516 0.16880624 0.14180936 0.15653795 0.16088265
0.18751235 0.19031638 0.1433728 0.18062773 0.22410263 0.12999943 0.18522996 0.17560002
0.13698643 0.15592101 0.17216213 0.15774085 0.11489875 0.22361445 0.15462081 0.12888063
0.1680125 0.2093058 0.13271931 0.14501077 0.16721314 0.24996695 0.2081252 0.17410314
0.16273762 0.14872205 0.20725793 0.14448722 0.15623876 0.14258806 0.18110245 0.18277183
0.13550232 0.13845064 0.13190699 0.1890866 0.16167925 0.17232332 0.19960923 0.18741362
0.14758772 0.17190456 0.28950623 0.16345678 0.17728579 0.18093105 0.16411944 0.1383872
00000000: f084 2a3e 9540 3a3e b2b9 1a3e 1e27 073e
00000010: 8bdb 2c3e 7936 113e 7c4b 203e 6cbe 243e
00000020: 3d03 403e 4ce2 423e 52d0 123e 7af6 383e
00000030: 297b 653e 921e 053e ecac 3d3e 7ed0 333e
00000040: 2c46 0c3e c2a9 1f3e 454b 303e d186 213e
00000050: 0950 eb3d 30fb 643e eb54 1e3e 49f9 033e
00000060: 780b 2c3e 4254 563e 92e7 073e b47d 143e
00000070: ec39 2b3e 56f7 7f3e c61e 553e 1848 323e
00000080: b1a4 263e 984a 183e 6c3b 543e 75f4 133e
00000090: 0efd 1f3e 9b02 123e ec72 393e 8a28 3b3e
000000a0: 1fc1 0a3e 01c6 0d3e a012 073e eb9f 413e
000000b0: 3f8f 253e 8675 303e 5d66 4c3e 5be9 3f3e
000000c0: 3c21 173e c007 303e 293a 943e 3761 273e
000000d0: 688a 353e fd45 393e ed0e 283e 60b5 0d3e

model/batch_normalization_5/FusedBatchNormV31 f4 [56]
-0.11602712 -1.1525643 -0.063822865 -0.21968573 -1.2735226 -0.59503883 -0.6604963 -0.7526424
-0.14531317 -0.20463657 -0.30790517 -0.47868198 -0.48336405 -0.700039 -0.5166323 -0.25294942
-0.8154924 -0.25352967 -0.46197146 -0.379025 -1.498212 -0.5146568 -0.81465644 -0.92168194
-0.9340395 -0.9944227 -0.71684396 -0.4695063 -0.8415934 -0.31999743 -0.4340219 -0.41993457
-0.68882275 -0.84574187 -1.0207827 -0.4450253 -0.36012733 -0.24689144 -0.10709591 -1.327699
-0.6952697 -0.40713942 -0.96414655 -0.5129541 -0.3599607 -0.54797196 -0.9424981 -0.38710552
-0.6817151 -0.2427621 -0.4759786 -0.39200187 -1.2783954 -0.6383542 0.25244367 -0.9203509
00000000: a09f edbd 3a87 93bf 90b5 82bd 4cf5 60be
00000010: ca02 a3bf 7754 18bf 4916 29bf 2cad 40bf
00000020: facc 14be 408c 51be bfa5 9dbe ce15 f5be
00000030: 7e7b f7be c235 33bf 0442 04bf 9682 81be
00000040: 1cc4 50bf a4ce 81be 8687 ecbe 910f c2be
00000050: 69c5 bfbf 8cc0 03bf 538d 50bf 59f3 6bbf
00000060: 361d 6fbf 7c92 7ebf 1683 37bf 2163 f0be
00000070: aa72 57bf b4d6 a3be 1e38 debe aa01 d7be
00000080: b056 30bf 8a82 58bf 02a9 82bf 5bda e3be
00000090: 9c62 b8be 1cd1 7cbe 1a55 dbbd 0af2 a9bf
000000a0: 32fd 31bf 9474 d0be 4fd2 76bf f650 03bf
000000b0: c54c b8be e447 0cbf 8e47 71bf b232 c6be
000000c0: e184 2ebf a196 78be 78b3 f3be 78b4 c8be
000000d0: 76a2 a3bf 2e6b 23bf 4c40 813e 1e9c 6bbf

model/batch_normalization_6/FusedBatchNormV3 f4 [56]
0.17457674 0.16963418 0.18539648 0.2916699 0.15791373 0.2383781 0.14244774 0.12375229
0.24387954 0.17235285 0.131491 0.16697377 0.17359082 0.18854408 0.15270749 0.16803771
0.13230626 0.16916677 0.26158398 0.18854378 0.17361689 0.20631744 0.075613044 0.18108748
0.20149182 0.19053057 0.15000571 0.12401464 0.22084853 0.12419846 0.20436497 0.15989636
0.22069946 0.105656676 0.119810626 0.25763115 0.16486026 0.19014958 0.15069824 0.20022157
0.2319893 0.16599625 0.20628297 0.26999944 0.17953254 0.13429527 0.33716705 0.19443028
0.11993723 0.17920066 0.22046188 0.2524436 0.21153995 0.17937809 0.13834624 0.21941385
00000000: 3fc4 323e 95b4 2d3e 93d8 3d3e c255 953e
00000010: 23b4 213e 6319 743e d2dd 113e d771 fd3d
00000020: 8fbb 793e 447d 303e 94a5 063e 2cfb 2a3e
00000030: cbc1 313e b311 413e 5a5f 1c3e 1412 2c3e
00000040: 4b7b 073e 0e3a 2d3e 56ee 853e 9f11 413e
00000050: a0c8 313e e144 533e 03db 9a3d ff6e 393e
00000060: df53 4e3e 721a 433e 199b 193e 63fb fd3d
00000070: 1e26 623e c35b fe3d 0d45 513e dfbb 233e
00000080: 0aff 613e 8762 d83d 465f f53d 3be8 833e
00000090: 21d1 283e 92b6 423e a450 1a3e e206 4d3e
000000a0: 9a8e 6d3e ecfa 293e d83b 533e 5e3d 8a3e
000000b0: 61d7 373e b384 093e 29a1 ac3e bb18 473e
000000c0: a7a1 f53d 6180 373e c2c0 613e 4a40 813e
000000d0: ee9d 583e e4ae 373e a3aa 0d3e 06ae 603e

model/batch_normalization_6/FusedBatchNormV31 f4 [56]
-0.27579612 0.057070494 -0.854873 -0.21136662 -0.368735 -0.3507591 -0.16317445 -0.98326343
-0.21889545 -0.27467096 -0.25760376 -0.19067149 -0.12702334 -0.13062784 -0.08031231 -0.55456287
0.13189864 -0.25286537 0.06900558 -0.13154328 -0.2869736 -0.3276423 -1.3990767 -0.54349536
-0.35068053 -0.43616647 -0.2731353 -0.421416 -0.2298758 -0.43135554 -0.52590066 -0.3006692
-0.26894656 -1.48891 -0.69515216 -0.3220216 -0.42477128 -0.47327137 -0.74852145 -0.3540634
-0.36471188 -0.75391245 -0.77557945 -0.55037737 -0.36208698 -0.6500298 -0.79217523 -0.7379821
-1.0545641 -0.50385875 -0.34767517 -0.6413299 -0.57087946 -0.16641182 -1.0611508 -0.8804799
00000000: 2635 8dbe c0c2 693d f5d8 5abf 7e70 58be
00000010: d5ca bcbe b296 b3be 3417 27be 27b7 7bbf
00000020: 2126 60be aca1 8cbe a4e4 83be 633f 43be
00000030: 6812 02be 4ec3 05be c87a a4bd d5f7 0dbf
00000040: 7010 073e 9277 81be cc52 8d3d 48b3 06be
00000050: 34ee 92be bbc0 a7be f214 b3bf 8322 0bbf
00000060: 668c b3be 3651 dfbe 64d8 8bbe d7c3 d7be
00000070: 9064 6bbe a2da dcbe 6da1 06bf 50f1 99be
00000080: 5db3 89be 9a94 bebf 7ef5 31bf 04e0 a4be
00000090: 9f7b d9be a050 f2be 1a9f 3fbf cc47 b5be
000000a0: 84bb babe 6800 41bf 608c 46bf 88e5 0cbf
000000b0: 7763 b9be 5a68 26bf ffcb 4abf 65ec 3cbf
000000c0: f5fb 86bf e3fc 00bf 7b02 b2be 322e 24bf
000000d0: 2825 12bf dc67 2abe cad3 87bf 2167 61bf

model/batch_normalization_7/FusedBatchNormV3 f4 [57]
0.147912 0.19237968 0.08481187 0.07277277 0.0721511 0.15131338 0.07027288 0.08387933
0.18984765 0.11937868 0.23181495 0.069680475 0.07260001 0.064352624 0.06560829 0.08486281
0.08868444 0.08398384 0.130631 0.08931591 0.08102396 0.088385716 0.10659907 0.1007634
0.06641999 0.08910785 0.056439668 0.055278968 0.16152176 0.12645061 0.09664765 0.22035149
0.4900209 0.05082015 0.084866494 0.05134497 0.06250826 0.060037453 0.16549593 0.0444127
0.07590796 0.09081205 0.0956223 0.15315548 0.13904375 0.13984181 0.053740084 0.16044204
0.13252184 0.13953064 0.07432105 0.22783057 0.060011197 0.065111846 0.19982037 0.09366816
0.1537455
00000000: 3e76 173e 2eff 443e d8b1 ad3d e409 953d
00000010: f5c3 933d e5f1 1a3e 3aeb 8f3d edc8 ab3d
00000020: 6c67 423e cf7c f43d e660 6d3e a3b4 8e3d
00000030: 50af 943d 4fcb 833d a45d 863d 8ecc ad3d
00000040: 30a0 b53d b8ff ab3d 22c4 053e 43eb b63d
00000050: e4ef a53d 9203 b53d 9d50 da3d 0b5d ce3d
00000060: 3407 883d 2d7e b63d 482d 673d 336c 623d
00000070: f665 253e 457c 013e 34ef c53d d2a3 613e
00000080: 05e4 fa3e ca28 503d 7cce ad3d 1a4f 523d
00000090: 5504 803d d5e9 753d c477 293e 17ea 353d
000000a0: a275 9b3d abfb b93d a0d5 c33d cad4 1c3e
000000b0: 7c61 0e3e b132 0f3e 901e 5c3d eb4a 243e
000000c0: ceb3 073e 1fe1 0e3e a235 983d 6b4c 693e
000000d0: 4dce 753d 5c59 853d b69d 4c3e 18d5 bf3d
000000e0: 766f 1d3e

model/batch_normalization_7/FusedBatchNormV31 f4 [57]
-0.04746613 -0.9701492 -0.12380445 -0.6536454 -0.61864984 -0.615041 -0.5825795 -0.8726808
-0.12352359 -0.1612729 0.00043272972 -0.5077711 -0.1937117 -0.6607731 -0.3124685 0.13132262
0.063468754 -0.36805645 -0.10610825 0.07199478 -0.68837655 -0.00957036 0.02765745 -0.6102781
-0.30900136 -0.044402122 -0.14562231 -0.30620208 0.024218857 -0.20044991 -0.3721879 -0.17657283
0.06310877 -0.23566478 -0.4796545 -0.46380433 -0.28514576 -0.39263523 -0.010262907 -0.20022917
-0.10115188 -0.017305136 0.08637977 -0.16644281 -0.22358742 -0.31228074 0.039592445 -0.1859385
-0.1945729 -0.12092735 -0.35019183 -0.14238468 -0.38611868 0.07299274 -0.43120843 -0.14731261
-0.09119511
00000000: d86b 42bd b35b 78bf 308d fdbd 4e55 27bf
00000010: d65f 1ebf 5473 1dbf ee23 15bf 0268 5fbf
00000020: f0f9 fcbd b924 25be 00e0 e239 49fd 01bf
00000030: 5c5c 46be 6d28 29bf dffb 9fbe 7079 063e
00000040: e8fb 813d e571 bcbe 484f d9bd 0072 933d
00000050: 7239 30bf 00cd 1cbc e091 e23c 303b 1cbf
00000060: 6d35 9ebe 00df 35bd 041e 15be 85c6 9cbe
00000070: a066 c63c be42 4dbe 6a8f bebe 82cf 34be
00000080: 2c3f 813d 1c52 71be 4695 f5be c377 edbe
00000090: a0fe 91be 7c07 c9be c025 28bc e008 4dbe
000000a0: b828 cfbd 80c3 8dbc e0e7 b03d fc6f 2abe
000000b0: 1af4 64be 43e3 9fbe b02b 223d aa66 3ebe
000000c0: 1e3e 47be c2a8 f7bd 584c b3be 4acd 11be
000000d0: 59b1 c5be 387d 953d 5ac7 dcbe 1ed9 16be
000000e0: 80c4 babd

model/batch_normalization_8/FusedBatchNormV3 f4 [57]
0.026267454 0.0986033 0.02130906 0.029042935 0.01747078 0.0843251 0.028287262 0.059797492
0.020684788 0.05913333 -0.050180964 0.014831862 0.022165984 0.03866844 0.041216813 1.7921656
0.015328514 0.049468704 0.050818074 0.01752689 0.027612733 0.015474902 0.03357636 0.12771088
0.11670016 0.025656281 0.027117565 0.014650783 0.032619383 0.06938263 0.14418818 0.0109398365
0.11592191 0.016479233 0.017101243 0.02197312 0.42846003 0.41009188 0.049887024 0.046150096
0.62264603 0.022937022 0.018134665 0.023989003 0.016083758 0.059357315 0.011434654 0.4418496
0.014612816 0.049958065 0.07610546 0.040633127 0.052389294 0.024728736 0.019118827 0.015244538
0.022871863
00000000: d82e d73c 87f0 c93d 5690 ae3c 73eb ed3c
00000010: e21e 8f3c a3b2 ac3d b0ba e73c 37ee 743d
00000020: 2573 a93c ca35 723d 8e8a 4dbd 5701 733c
00000030: 7095 b53c cc62 1e3d f6d2 283d af65 e53f
00000040: 7324 7b3c b29f 4a3d 9d26 503d 8d94 8f3c
00000050: 1934 e23c 718a 7d3c 5e87 093d a4c6 023e
00000060: 7e00 ef3d 1f2d d23c a825 de3c d609 703c
00000070: e79b 053d 7b18 8e3d 11a6 133e 003d 333c
00000080: 7768 ed3d 75ff 863c e817 8c3c f900 b43c
00000090: 1d5f db3e 90f7 d13e 5656 4c3d e207 3d3d
000000a0: bb65 1f3f 6ce6 bb3c 268f 943c 9684 c43c
000000b0: 16c2 833c a820 733d 6a58 3b3c 1c3a e23e
000000c0: 986a 6f3c d4a0 4c3d 2edd 9b3d ec6e 263d
000000d0: 2896 563d eb93 ca3c 169f 9c3c 3ac4 793c
000000e0: c65d bb3c

model/batch_normalization_8/FusedBatchNormV31 f4 [57]
-0.11317278 -0.0023495853 -0.21816324 -0.17769462 -0.055372022 -0.079416424 -0.18852578 -0.07818979
-0.047957532 -0.14235838 0.003895992 -0.023155093 -0.040026337 -0.04437986 -0.06808202 0.08399305
-0.043225735 -0.069805354 -0.0092806 -0.13219753 -0.2377784 -0.0067550093 -0.08349235 -0.033957645
0.01586333 -0.16471523 -0.020248502 -0.064624764 0.0077242106 -0.17378044 -0.02549678 0.016941547
-0.014168799 -0.13999021 -0.03727898 -0.14390965 -0.011842504 -0.010659367 -0.019149527 -0.12078093
0.04789567 0.009870619 -0.18576515 -0.1585516 -0.10251079 -0.09541491 -0.007407211 0.0018369108
0.0028527305 -0.2629159 -0.08163957 -0.007971272 -0.18954757 -0.034738794 -0.067670144 -0.013681091
-0.022849113
00000000: 21c7 e7bd 80fb 19bb 2f66 5fbe 94f5 35be
00000010: c6cd 62bd 14a5 a2bd e70c 41be f821 a0bd
00000020: 1e6f 44bd 65c6 11be e653 7f3b c0af bdbc
00000030: a8f2 23bd a8c7 35bd 966e 8bbd 8c04 ac3d
00000040: 780d 31bd 1cf6 8ebd a80d 18bc ca5e 07be
00000050: 2e7c 73be 2059 ddbb 0afe aabd 2c17 0bbd
00000060: d0f3 813c 1cab 28be 30e0 a5bc fd59 84bd
00000070: 601b fd3b 80f3 31be a0de d0bc 00c9 8a3c
00000080: 4024 68bc 9859 0fbe d8b1 18bd 0d5d 13be
00000090: 1007 42bc a0a4 2ebc 78df 9cbc fe5b f7bd
000000a0: 402e 443d 60b8 213c 3839 3ebe 5a5b 22be
000000b0: 2df1 d1bd e468 c3bd 30b8 f2bb 80c4 f03a
000000c0: e0f4 3a3b ea9c 86be a632 a7bd f099 02bc
000000d0: c218 42be 444a 0ebd a596 8abd a826 60bc
000000e0: 102e bbbc

model/dense/MatMul f4 [128, 57]
0.1594895 -0.0402829 0.5381007 0.10029953 0.356902 -0.40360573 0.10693325 0.18468153
0.16242507 0.18723522 -0.072696194 0.31258607 -0.030030994 -0.13149132 -0.08593497 -0.37448078
0.3435111 -0.22436024 -0.06621371 0.33120698 0.04463212 0.23716964 9.535796e-05 -0.63107896
0.27988604 0.10139825 -0.15733269 -0.013943746 -0.090813965 -0.34919783 -0.22573265 -0.06514239
-0.0834765 -0.07246764 -0.14142793 0.115754366 0.35099348 -0.15554579 0.43002972 0.02023525
0.24613713 -0.014800204 0.2516234 -0.038141597 0.10904809 -0.2614939 0.02151993 -0.04099392
0.00040390374 -0.0060722753 0.2892705 0.102884844 -0.2152692 0.15358573 -0.07241998 0.046715084
0.25098366 0.43292603 -0.014140172 0.40178424 0.3021562 -0.015946921 -0.24490215 0.054357305
0.17369607 0.33480397 -0.11689688 0.21357818 -0.13782297 -0.052329443 0.042407434 -0.271769
-0.1006754 0.041400246 -0.27727118 -0.18316701 0.40941876 -0.0032545046 0.10754622 0.20813504
-0.34921533 0.21569695 0.046896834 0.033233277 0.1925889 -0.049736198 0.32311115 -0.3590887
0.000323953 0.019603169 0.62351525 -0.04242535 0.1859921 -0.08575335 -0.15084249 0.09225914
-0.10743891 -0.42310026 0.0024133385 0.28717676 0.4337229 0.17152229 -0.49707544 0.101707615
-0.07747903 -0.06121433 0.104099445 -0.0726134 -0.2589093 -0.30803737 -0.008278845 0.17754875
-0.014801363 0.004845639 0.17715289 -0.095648736 0.010541671 0.7034813 0.029154105 -0.5000082
-0.12644951 -0.37448663 -0.10945261 -0.34574562 -0.074362874 -0.20505324 -0.29135883 -0.20551194
-0.28085962 0.39987198 0.1957223 -0.3139968 -0.014575863 -0.07172518 0.07223471 -0.017995887
0.02942208 -0.30713874 0.31339523 0.034915544 -0.2839263 0.69081646 -0.23310019 0.40201768
-0.2997534 0.03573051 -0.18414514 0.65669984 -0.063977614 0.51593405 -0.22456706 0.09774273
-0.07075072 -0.33949363 -0.25171897 -0.09934121 0.20229763 0.4636851 0.17100678 -0.7027356
-0.21351545 0.17969108 -0.07550318 0.12163527 -0.55828804 -0.20647512 -0.53978014 -0.3613655
0.063160345 -0.069990635 -0.122560844 0.13176934 0.15469955 -0.057089474 -0.0019074205 -0.10746392
-0.4693401 0.104495205 0.11098819 0.1855836 0.030394489 0.018242974 0.053800333 0.0009851471
0.17284101 0.09975153 -0.55329907 -0.08479915 -0.39103457 -0.13974673 0.12946036 0.048788268
-0.0393307 0.17033555 -0.49885094 0.09479792 0.20774168 -0.18604197 -0.04609158 0.16524437
-0.38628435 -0.38731372 0.04520457 -0.008637381 0.2288856 0.23030198 0.24999242 0.13380852
-0.26848352 0.00897468 0.04063344 0.005189953 -0.007824105 0.35440058 -0.05408563 0.17598139
-0.32608694 -0.11101331 0.016859576 -0.009130872 0.006073753 0.14091112 0.049482774 -0.23201506
0.02440368 -0.14683464 -0.25880697 0.068369254 0.22125235 0.4034034 0.025486007 0.0649962
0.12835737 0.30945957 0.38011357 0.08736236 0.010122875 -0.33174813 -0.16247866 -0.007950231
-0.027205845 0.051322788 -0.22813217 0.14142665 -0.13405643 0.24381761 0.18801945 0.05725758
0.43032813 0.10664339 0.1801307 0.11471237 -0.14399168 0.43076608 -0.05682281 -0.11033711
00000000: 3751 233e afff 24bd f8c0 093f d769 cd3d
00000010: dcbb b63e 69a5 cebe d2ff da3d 281d 3d3e
00000020: c252 263e 97ba 3f3e bee1 94bd 480b a03e
00000030: 8f03 f6bc a9a5 06be acfe afbd f2bb bfbe
00000040: b0e0 af3e b1be 65be 0e9b 87bd f693 a93e
00000050: 2bd0 363d 99dc 723e eafa c738 648e 21bf
00000060: 394d 8f3e e3a9 cf3d d21b 21be 4f74 64bc
00000070: acfc b9bd 0fca b2be 7626 67be 6069 85bd
00000080: baf5 aabd ea69 94bd 7cd2 10be a010 ed3d
00000090: 6bb5 b33e 6547 1fbe db2c dc3e 65c4 a53c
000000a0: 5f0b 7c3e 8e7c 72bc c8d4 803e 5d3a 1cbd
000000b0: 9b54 df3d 87e2 85be 904a b03c 3ee9 27bd
000000c0: 0bc3 d339 f0f9 c6bb 431b 943e 4ab5 d23d
000000d0: 876f 5cbe 9445 1d3e ed50 94bd 5158 3f3d
000000e0: ee80 803e 7ba8 dd3e 2eac 67bc aab6 cd3e
000000f0: 38b4 9a3e 1ea3 82bc a1c7 7abe c4a5 5e3d
00000100: 62dd 313e 6d6b ab3e a267 efbd 3db4 5a3e
00000110: 7721 0dbe 6657 56bd 6bb3 2d3d 4e25 8bbe
00000120: e72e cebd 4e93 293d 7df6 8dbe 2290 3bbe
00000130: 569f d13e 8749 55bb 3141 dc3d 5a21 553e
00000140: 5acc b2be a9df 5c3e e516 403d 9e1f 083d
00000150: 0636 453e 2fb8 4bbd d36e a53e 79da b7be
00000160: 3cd8 a939 d396 a03c b29e 1f3f 34c6 2dbd
00000170: b774 3e3e 749f afbd 7476 1abe 5cf2 bc3d
00000180: ee08 dcbd 99a0 d8be 1a29 1e3b d508 933e
00000190: ee10 de3e 8aa3 2f3e ac80 febe 154c d03d
000001a0: 53ad 9ebd e1bb 7abd 1732 d53d 56b6 94bd
000001b0: c38f 84be 13b7 9dbe fea3 07bc 57cf 353e
000001c0: 6b81 72bc 2bc8 9e3b 9167 353e 7ce3 c3bd
000001d0: f9b6 2c3c 5a17 343f 97d4 ee3c 8a00 00bf
000001e0: fb7b 01be b6bc bfbe b128 e0bd 9205 b1be
000001f0: 904b 98bd 7af9 51be fc2c 95be b971 52be
00000200: d5cc 8fbe 05bc cc3e 6d6b 483e 30c4 a0be
00000210: 9acf 6ebc a7e4 92bd cbef 933d 1c6c 93bc
00000220: 9306 f13c 4a41 9dbe 5775 a03e 9a03 0f3d
00000230: ca5e 91be 59d9 303f d1b1 6ebe 43d5 cd3e
00000240: 4779 99be 285a 123d 8b90 3cbe 7b1d 283f
00000250: b206 83bd 4114 043f e8f4 65be 572d c83d
00000260: c1e5 90bd 1cd2 adbe 4fe1 80be 6873 cbbd
00000270: 1c27 4f3e 2268 ed3e 671c 2f3e 7be6 33bf
00000280: cba3 5abe f000 383e 69a1 9abd ea1b f93d
00000290: f7eb 0ebf 376e 53be 082f 0abf e604 b9be
000002a0: 365a 813d 4057 8fbd 2e01 fbbd 8bee 063e
000002b0: 8f69 1e3e a7d6 69bd 6902 faba 0b16 dcbd
000002c0: 584d f0be 9501 d63d c74d e33d a109 3e3e
000002d0: ddfd f83c 4a72 953c bd5d 5c3d 0d20 813a
000002e0: 3cfd 303e 884a cc3d 02a5 0dbf 2dab adbd
000002f0: af35 c8be c419 0fbe 4291 043e 35d6 473d
00000300: 3a19 21bd 716c 2e3e 6469 ffbe 6925 c23d
00000310: 3cba 543e c981 3ebe 86ca 3cbd d235 293e
00000320: 10c7 c5be fc4d c6be 6d28 393d cd83 0dbc
00000330: fd60 6a3e 48d4 6b3e 03fe 7f3e 1a05 093e
00000340: ac76 89be 890a 133c 406f 263d 7b10 aa3b
00000350: ad30 00bc fe73 b53e e588 5dbd 7734 343e
00000360: def4 a6be f25a e3bd 181d 8a3c a799 15bc
00000370: 5506 c73b 014b 103e 73ae 4a3d 5b95 6dbe
00000380: 3aea c73c d25b 16be 5982 84be 2e05 8c3d
00000390: fa8f 623e e48a ce3e 08c8 d03c ba1c 853d
000003a0: 1d70 033e 7c71 9e3e 3f9e c23e 09eb b23d
000003b0: 6ada 253c e4da a9be ce60 26be b041 02bc
000003c0: cbde debc d837 523d 7b9b 69be 26d2 103e
000003d0: 1746 09be 53ab 793e 2c88 403e ed86 6a3d
000003e0: f853 dc3e da67 da3d 2f74 383e 52ee ea3d
000003f0: 8e72 13be 5f8d dc3e 09bf 68bd 6cf8 e1bd

model/dense_1/MatMul f4 [1, 128]
-0.06265023 -0.056051154 -0.123698115 -0.033973504 0.08994949 -0.0686653 -0.13855147 -0.10418332
-0.050706744 0.072372586 0.113711074 -0.085644014 -0.105820276 -0.06357776 -0.08454855 0.064333156
-0.040183887 -0.10710723 -0.08951417 -0.04568426 0.09675994 0.08165614 0.0735491 0.068953045
-0.041606396 0.07281525 -0.08225467 0.09075621 -0.061495535 0.0975643 0.08544732 -0.08222111
-0.042736348 -0.044380195 0.06697685 -0.038620383 0.13280024 0.062286507 -0.124504976 0.07346892
-0.06266904 -0.03204437 -0.0492442 -0.08389669 -0.077519104 -0.07576744 -0.09190893 0.06664513
0.06397086 -0.06710587 0.15881273 -0.016398314 -0.03668554 0.0699987 0.06928043 0.075212896
-0.074485496 -0.06503688 -0.071889095 -0.09036315 -0.09618295 0.063123904 0.037590273 0.05615156
0.23587985 0.13781333 0.09658728 -0.05952951 -0.078688666 -0.0392989 0.10905499 0.11582677
0.05924711 0.073034026 -0.07670513 -0.053609557 -0.06388235 -0.038962595 -0.06288688 0.08579174
0.12791054 -0.043147814 -0.067135066 0.1109282 -0.025412666 0.1474907 -0.021080667 0.24984428
-0.08147513 -0.05262673 -0.094546124 -0.036684856 0.15485667 0.046472665 -0.021730708 -0.04551985
-0.053265788 -0.044548143 -0.040885307 -0.008418323 -0.08046779 0.055327605 -0.04740391 -0.084305175
-0.102251716 0.10383324 -0.054213773 0.08289101 0.056851808 0.1590235 -0.036119964 -0.04742483
-0.086147584 -0.05836586 -0.04573421 0.01843683 -0.063049406 0.04321299 0.08963938 -0.07197957
-0.054147787 -0.08255195 0.09339241 -0.10754226 -0.03808911 -0.05758382 0.05195635 -0.030772386
00000000: c44e 80bd e595 65bd 7055 fdbd cd27 0bbd
00000010: 7037 b83d 65a0 8cbd 70e0 0dbe 115e d5bd
00000020: e0b1 4fbd 1438 943d 5ae1 e83d 2166 afbd
00000030: 4db8 d8bd 0e35 82bd ca27 adbd 1ac1 833d
00000040: dc97 24bd 095b dbbd 3553 b7bd 6b1f 3bbd
00000050: 132a c63d 563b a73d e9a0 963d 4137 8d3d
00000060: 786b 2abd 2920 953d 2375 a8bd 64de b93d
00000070: bee2 7bbd cbcf c73d 01ff ae3d 8b63 a8bd
00000080: 4f0c 2fbd 02c8 35bd 292b 893d 6830 1ebd
00000090: c9fc 073e 2320 7f3d 77fc febd e076 963d
000000a0: a058 80bd f540 03bd 49b4 49bd 07d2 abbd
000000b0: 56c2 9ebd f62b 9bbd c03a bcbd 3e7d 883d
000000c0: 2703 833d cd6e 89bd ce9f 223e c255 86bc
000000d0: 9443 16bd 7a5b 8f3d e6e2 8d3d 3809 9a3d
000000e0: da8b 98bd 0e32 85bd 973a 93bd 5110 b9bd
000000f0: 91fb c4bd 1b47 813d 42f8 193d 2eff 653d
00000100: 7d8a 713e f01e 0d3e 8dcf c53d 37d5 73bd
00000110: 8627 a1bd e2f7 20bd 3958 df3d 9636 ed3d
00000120: 19ad 723d dd92 953d 9417 9dbd b295 5bbd
00000130: c0d4 82bd 3e97 1fbd d6ca 80bd 94b3 af3d
00000140: fbfa 023e c3bb 30bd 1c7e 89bd 532e e33d
00000150: 392e d0bc cd07 173e 5db1 acbc 2ed7 7f3e
00000160: 6fdc a6bd 208f 57bd 66a1 c1bd dc42 16bd
00000170: bf92 1e3e 1f5a 3e3d 9904 b2bc 0673 3abd
00000180: 3a2d 5abd 1d78 36bd 5a77 27bd 01ed 09bc
00000190: 4ccc a4bd 339f 623d 9a2a 42bd 31a8 acbd
000001a0: 5969 d1bd 86a6 d43d 430f 5ebd c3c2 a93d
000001b0: 71dd 683d 0ed7 223e 87f2 13bd 8a40 42bd
000001c0: 256e b0bd 0a11 6fbd cc53 3bbd d608 973c
000001d0: 0c20 81bd 1b00 313d da94 b73d 066a 93bd
000001e0: 12ca 5dbd ff10 a9bd 8544 bf3d 1e3f dcbd
000001f0: 5403 1cbd 03dd 6bbd 2fd0 543d 5f16 fcbc

model/conv2d/Conv2D f4 [54, 3, 3, 1]
0.23390709 0.031563003 0.55473447 -0.31049708 1.4930555 0.07480354 -0.20733373 0.76369834
-0.7065229 -0.672274 -0.7964098 0.022611408 -0.60301113 -0.8591933 -0.23231497 0.4746629
-0.5014431 0.13770173 0.12138066 0.52990013 -0.3527443 0.37411 0.007860061 -1.0183513
-0.07240881 -0.8314113 -0.9717105 -0.08311023 -0.4519419 0.24046537 -0.11445437 -0.28474978
1.1322693 -0.07650904 1.0936502 -0.52045226 -0.24100979 -0.021546524 0.10737177 -0.23931848
-0.112402566 -0.052585375 1.5385574 -0.07417168 -0.029120373 0.82363206 -0.1224023 -0.24554846
0.02499239 -1.1678379 -0.16386417 -0.951238 0.16064346 0.6234019 0.1727617 -0.3065466
0.03215517 0.9099909 -0.34147128 -0.22586231 -0.46962047 1.3206098 -0.024261175 -0.23734972
-0.88682795 -0.2916566 0.31126723 1.0232253 0.23348337 -0.21392742 -0.84043455 -0.03395165
-0.2875324 0.46395004 -0.32938835 0.024354259 1.512022 -0.17096147 0.11123767 -0.15405993
0.41721076 0.5000755 0.19250377 -1.1098145 -0.044216573 0.921787 -0.13853846 -0.5171978
-0.22078685 0.71900564 0.13110597 -0.64115155 -0.652605 0.3207414 -0.8067848 0.73860645
0.16945618 -0.6185351 0.8250031 0.35907844 1.0574362 0.28621542 -0.05135861 -0.19426452
0.26790223 -0.43277928 -0.9928742 -0.68201834 0.026983378 -0.5783647 -0.35105327 0.8822197
-0.93545693 -0.4008639 0.69761574 -0.16788948 0.33387932 0.030395485 -0.08118417 -0.056238163
0.09175964 1.6038469 -0.05953027 -0.17908986 -0.15209574 0.08797041 0.026387634 -0.8750138
0.34104967 -0.013850991 -0.2638718 -0.18328138 -0.19500309 1.0956556 -0.9022742 0.45113492
-0.62657946 1.0110602 0.56053185 -0.57232493 0.20869218 0.31942037 -0.49324396 -0.7724643
0.79009384 0.050059155 -0.48194638 1.2429334 0.27297598 -0.24675778 0.026936736 0.3956487
-0.29234508 -0.1415835 -0.05264095 1.3632995 -0.16233179 -0.18415242 0.35547122 -0.1449928
-0.025360782 0.2798998 0.5779527 -0.49455813 -0.12595327 -0.14726517 1.6091658 -0.085180484
-0.33368856 -0.24673308 0.1083941 0.35091493 1.0746082 0.35429746 -0.678899 -0.6078124
0.18336248 -0.32980216 -0.8114965 0.052818343 0.07785219 0.020491194 0.2500688 -0.017174829
1.1060865 0.027021604 -0.20277576 0.98709303 -0.3940353 -0.5900939 -0.9196701 -0.5917747
-0.10710972 -0.111271866 0.34655586 0.6133765 0.557304 0.74203765 -0.73998314 1.5264473
0.49794054 0.21170934 0.23754485 0.28163224 -0.47887284 -0.12643 0.03237048 -0.88818824
0.37758446 -0.08156569 -0.0339009 -0.355018 0.3862147 0.941287 -0.74365723 -0.5279782
-0.07950223 -0.2253108 -0.10298738 -0.06442918 -0.38693947 -0.01711731 0.0685337 1.7400383
0.10313026 1.3192326 -0.13777097 -0.101486996 -0.2032489 -0.0060587404 -0.13455783 -0.32032344
-0.14344993 -0.230051 -0.061313316 0.20413885 0.3381128 -0.65570825 -0.83959824 0.088253915
-0.6896286 -0.75048625 -0.36246684 0.07654551 1.6730709 -0.19338095 -0.1771741 -0.450934
0.17885366 -0.020339161 -0.039351366 0.06419119 -0.622183 -0.62892604 -0.6793862 -0.75214094
00000000: 5785 6f3e 3548 013d 1403 0e3f 79f9 9ebe
00000010: 711c bf3f 9932 993d 4b4f 54be bc81 433f
00000020: afde 34bf 261a 2cbf 83e1 4bbf 8f3b b93c
00000030: f05e 1abf 18f4 5bbf fae3 6dbe 0407 f33e
00000040: 935e 00bf af01 0d3e 6c96 f83d 89a7 073f
00000050: e79a b4be 598b bf3e 7cc7 003c 5659 82bf
00000060: 124b 94bd 5fd7 54bf 05c2 78bf b235 aabd
00000070: ee64 e7be 8e3c 763e 0e67 eabd b9ca 91be
00000080: 33ee 903f c6b0 9cbd bbfc 8b3f 5c3c 05bf
00000090: 45cb 76be 5682 b0bc bbe5 db3d e70f 75be
000000a0: 5133 e6bd c363 57bd 73ef c43f 52e7 97bd
000000b0: d98d eebc 8dd9 523f 0fae fabd 0e71 7bbe
000000c0: d7bc cc3c b67b 95bf 02cc 27be 5584 73bf
000000d0: b87f 243e 4497 1f3f 71e8 303e adf3 9cbe
000000e0: 24b5 033d 2af5 683f 53d5 aebe 7348 67be
000000f0: 1872 f0be be09 a93f 5fbf c6bc ce0b 73be
00000100: 2807 63bf 0454 95be 6b5e 9f3e 0cf9 823f
00000110: 4416 6f3e ca0f 5bbe b826 57bf e310 0bbd
00000120: 7237 93be dc8a ed3e 97a5 a8be 9582 c73c
00000130: f089 c13f 8610 2fbe 93d0 e33d e3c1 1dbe
00000140: a69c d53e f304 003f b51f 453e 670e 8ebf
00000150: 701c 35bd 3cfa 6b3f 07dd 0dbe 1367 04bf
00000160: f315 62be c110 383f a540 063e 8222 24bf
00000170: 1f11 27bf 3738 a43e 7389 4ebf 5015 3d3f
00000180: ec85 2d3e 5158 1ebf 6733 533f 21d9 b73e
00000190: 125a 873f d48a 923e 685d 52bd 47ed 46be
000001a0: 7b2a 893e 3f95 ddbe 012d 7ebf c198 2ebf
000001b0: 3f0c dd3c b50f 14bf 41bd b3be 26d9 613f
000001c0: 1b7a 6fbf 083e cdbe f296 323f 38eb 2bbe
000001d0: 3bf2 aa3e f4ff f83c e343 a6bd fd59 66bd
000001e0: 7aec bb3d db4a cd3f 03d6 73bd 5563 37be
000001f0: fcbe 1bbe d529 b43d e12a d83c e800 60bf
00000200: 109e ae3e 44ef 62bc 341a 87be 1dae 3bbe
00000210: e4ae 47be 713e 8c3f 71fb 66bf 28fb e63e
00000220: 8367 20bf 6c6a 813f 047f 0f3f e383 12bf
00000230: 67b3 553e 118b a33e 798a fcbe 38c0 45bf
00000240: 9743 4a3f d40a 4d3d adc1 f6be 7118 9f3f
00000250: 82c3 8b3e 12ae 7cbe 6eaa dc3c 7792 ca3e
00000260: 41ae 95be 44fb 10be 099e 57bd 9980 ae3f
00000270: 4e3a 26be 7492 3cbe 5300 b63e fe78 14be
00000280: 6ac1 cfbc 074f 8f3e b5f4 133f b936 fdbe
00000290: e5f9 00be aecc 16be 25f9 cd3f 1b73 aebd
000002a0: 3ad9 aabe 99a7 7cbe bafd dd3d 1fab b33e
000002b0: c38c 893f 7a66 b53e 53cc 2dbf 9899 1bbf
000002c0: 60c3 3b3e d4db a8be 3cbe 4fbf 0c58 583d
000002d0: f870 9f3d 26dd a73c 0509 803e 3ab2 8cbc
000002e0: 3e94 8d3f 695c dd3c 73a4 4fbe 21b2 7c3f
000002f0: ffbe c9be 6510 17bf 806f 6bbf 8c7e 17bf
00000300: 575c dbbd 81e2 e3bd c56f b13e 3e06 1d3f
00000310: 7aab 0e3f 2ef6 3d3f 896f 3dbf a062 c33f
00000320: 10f2 fe3e 55ca 583e f53e 733e 1a32 903e
00000330: d22e f5be de76 01be e996 043d 4e60 63bf
00000340: c052 c13e ea0b a7bd acdb 0abd ebc4 b5be
00000350: efbd c53e 2ff8 703f 5260 3ebf 9429 07bf
00000360: 11d2 a2bd e0b7 66be 0ceb d2bd 72f3 83bd
00000370: ee1c c6be 9a39 8cbc 665b 8c3d 93b9 de3f
00000380: f535 d33d 9ddc a83f d513 0dbe 6ad8 cfbd
00000390: 7b20 50be 6688 c6bb 87c9 09be 6f01 a4be
000003a0: 8ae4 12be 7d92 6bbe ac23 7bbd c609 513e
000003b0: 1f1d ad3e 7fdc 27bf e9ef 56bf 78be b43d
000003c0: 808b 30bf de1f 40bf 4195 b9be e4c3 9c3d
000003d0: 3027 d63f a805 46be 216d 35be d2e0 e6be
000003e0: 6a25 373e 509e a6bc e62e 21bd ac76 833d
000003f0: 6347 1fbf 4c01 21bf 41ec 2dbf 4f8c 40bf
