hello_tvm/c_runtime_graph_runner/kws_quant.tflite (tflite, 234960 bytes, 28 tensors)

model/batch_normalization_9/batchnorm/mul i1 [128] scale=0.010547165 zero_point=0
0.10547165 0.10547165 0.16875464 0.5379054 0.7383015 0.08437732 0.16875464 0.08437732
0.07383016 0.04218866 0.04218866 0.10547165 0.052735824 0.07383016 0.22149046 0.06328299
0.07383016 0.18984896 0.5379054 0.06328299 0.09492448 0.06328299 0.08437732 0.2109433
0.07383016 0.11601882 0.06328299 0.15820748 0.07383016 0.04218866 0.09492448 0.11601882
0.08437732 0.70666003 0.06328299 0.06328299 0.07383016 0.07383016 0.052735824 0.04218866
0.7910374 0.06328299 0.052735824 0.052735824 0.6855657 0.07383016 0.052735824 0.06328299
0.12656598 0.09492448 0.10547165 0.07383016 0.07383016 0.06328299 0.052735824 0.06328299
0.09492448 0.13711314 0.09492448 0.052735824 0.3902451 0.06328299 0.07383016 0.12656598
0.052735824 0.13711314 0.07383016 0.16875464 0.06328299 0.08437732 1.3394899 0.08437732
0.70666003 0.07383016 0.08437732 0.04218866 0.8648675 0.15820748 0.06328299 0.06328299
0.06328299 0.07383016 0.052735824 0.08437732 0.052735824 0.052735824 0.08437732 0.9176033
0.052735824 0.10547165 0.15820748 0.052735824 0.09492448 0.5589997 0.06328299 0.23203763
0.052735824 0.052735824 0.09492448 0.26367912 0.04218866 0.12656598 0.06328299 0.10547165
0.07383016 0.09492448 0.08437732 0.06328299 0.09492448 0.052735824 0.07383016 0.11601882
0.052735824 0.1793018 0.052735824 0.41133943 0.6117356 0.07383016 0.06328299 1.0019807
0.07383016 0.04218866 0.15820748 0.13711314 0.07383016 0.11601882 0.052735824 0.18984896
00000000: 0a0a 1033 4608 1008 0704 040a 0507 1506
00000010: 0712 3306 0906 0814 070b 060f 0704 090b
00000020: 0843 0606 0707 0504 4b06 0505 4107 0506
00000030: 0c09 0a07 0706 0506 090d 0905 2506 070c
00000040: 050d 0710 0608 7f08 4307 0804 520f 0606
00000050: 0607 0508 0505 0857 050a 0f05 0935 0616
00000060: 0505 0919 040c 060a 0709 0806 0905 070b
00000070: 0511 0527 3a07 065f 0704 0f0d 070b 0512

model/batch_normalization_9/batchnorm/sub i1 [128] scale=0.004844968 zero_point=0
-0.15988395 -0.019379873 -0.16472892 0.043604713 0.043604713 -0.12112421 -0.05813962 -0.36337262
-0.5862411 -0.36337262 -0.41666725 -0.15503898 -0.46511695 -0.39244244 0.15019402 -0.27131823
-0.4699619 -0.0920544 0.02422484 -0.5862411 0.0 -0.20348866 -0.24224842 -0.05813962
-0.10174433 -0.087209426 -0.33914778 -0.019379873 -0.5523264 -0.37306255 -0.11627924 -0.1986437
-0.12112421 0.02906981 -0.03391478 -0.27131823 -0.31492293 -0.61531097 -0.17926383 -0.35368267
0.0920544 -0.24224842 -0.36337262 -0.38275248 0.02422484 -0.18895376 -0.41666725 -0.40213236
-0.13081414 -0.12596917 -0.07751949 -0.16472892 -0.18895376 -0.111434266 -0.48449683 -0.03391478
-0.17926383 -0.14534904 -0.3197679 0.043604713 -0.004844968 -0.23255847 -0.12112421 -0.11627924
-0.062984586 -0.20348866 -0.20833363 -0.019379873 -0.087209426 -0.36337262 0.004844968 -0.25193834
0.043604713 -0.38759744 -0.07751949 -0.35368267 0.087209426 -0.04844968 -0.24709338 -0.5038767
-0.32461286 -0.32945785 -0.4408921 -0.22286853 -0.33914778 -0.24709338 -0.03391478 0.04844968
-0.29069808 0.009689936 -0.02906981 -0.32461286 -0.32461286 -0.07751949 -0.26162827 -0.05813962
-0.46027198 -0.4408921 -0.17441885 0.04844968 -0.29069808 -0.15019402 -0.23740344 -0.05329465
-0.5668613 -0.02906981 -0.14534904 -0.22286853 -0.11627924 -0.50872165 -0.07267452 -0.07267452
-0.45058206 0.05329465 -0.49903172 0.0 -0.087209426 -0.15019402 -0.02906981 -0.062984586
-0.33914778 -0.1841088 -0.02422484 -0.004844968 -0.24224842 -0.02422484 -0.46027198 -0.014534905
00000000: dffc de09 09e7 f4b5 87b5 aae0 a0af 1fc8
00000010: 9fed 0587 00d6 cef4 ebee bafc 8eb3 e8d7
00000020: e706 f9c8 bf81 dbb7 13ce b5b1 05d9 aaad
00000030: e5e6 f0de d9e9 9cf9 dbe2 be09 ffd0 e7e8
00000040: f3d6 d5fc eeb5 01cc 09b0 f0b7 12f6 cd98
00000050: bdbc a5d2 bacd f90a c402 fabd bdf0 caf4
00000060: a1a5 dc0a c4e1 cff5 8bfa e2d2 e897 f1f1
00000070: a30b 9900 eee1 faf3 bada fbff cefb a1fd

model/batch_normalization_1/FusedBatchNormV3 i1 [54] scale=0.31675017 zero_point=0
2.8507514 3.484252 12.986757 7.602004 4.4345026 6.0182533 4.4345026 5.701503
7.285254 4.4345026 4.7512527 7.602004 6.3350034 14.570508 7.602004 6.968504
2.2172513 28.507515 2.2172513 8.869005 3.801002 5.701503 2.5340014 12.986757
8.869005 11.719756 16.154259 5.3847528 6.6517534 40.227272 29.457766 9.185755
12.670007 30.724766 6.0182533 12.670007 5.0680027 2.2172513 2.2172513 5.701503
16.154259 14.253757 10.136005 6.0182533 2.8507514 7.285254 2.2172513 1.900501
7.918754 2.8507514 25.340014 6.3350034 4.7512527 14.887258
00000000: 090b 2918 0e13 0e12 170e 0f18 142e 1816
00000010: 075a 071c 0c12 0829 1c25 3311 157f 5d1d
00000020: 2861 1328 1007 0712 332d 2013 0917 0706
00000030: 1909 5014 0f2f

model/batch_normalization_1/FusedBatchNormV31 i1 [54] scale=0.016491963 zero_point=0
-1.6656883 -0.1814116 0.032983925 -0.06596785 -1.2698811 -0.23088747 -0.09895177 -1.5007685
-0.16491963 -0.11544374 -0.28036335 -0.082459815 -0.2638714 -0.1319357 -0.23088747 -0.1319357
-0.98951775 -0.5277428 -0.42879102 -0.082459815 -0.3463312 -1.8141159 -1.8965757 -0.23088747
-0.16491963 -0.24737944 -0.16491963 -0.19790354 -0.09895177 -0.082459815 -0.51125085 -0.19790354
-0.1814116 -0.032983925 -1.319357 -0.1319357 -0.1814116 -0.37931514 -0.46177495 -0.049475886
-0.21439551 -0.1814116 -0.16491963 -0.11544374 -0.7751222 -0.1319357 -1.302865 -1.2533891
-0.082459815 -1.0719776 -0.19790354 -0.24737944 -2.0944793 -0.2638714
00000000: 9bf5 02fc b3f2 faa5 f6f9 effb f0f8 f2f8
00000010: c4e0 e6fb eb92 8df2 f6f1 f6f4 fafb e1f4
00000020: f5fe b0f8 f5e9 e4fd f3f5 f6f9 d1f8 b1b4
00000030: fbbf f4f1 81f0

model/batch_normalization_2/FusedBatchNormV3 i1 [54] scale=0.0011866617 zero_point=0
0.09730626 0.10679955 0.102052905 0.09730626 0.111546196 0.07001304 0.091372944 0.0961196
0.09493293 0.09493293 0.07950633 0.091372944 0.0866263 0.084252976 0.08543964 0.11273286
0.08069299 0.110359535 0.09018628 0.102052905 0.084252976 0.0866263 0.1269728 0.08543964
0.08899962 0.15070602 0.08069299 0.08899962 0.1174795 0.10679955 0.09967958 0.11391952
0.110359535 0.0711997 0.11273286 0.06407973 0.05695976 0.0866263 0.066453055 0.10561289
0.075946346 0.08069299 0.10679955 0.07831967 0.10086624 0.09374627 0.09730626 0.12934612
0.10679955 0.09018628 0.08781296 0.111546196 0.10561289 0.12222615
00000000: 525a 5652 5e3b 4d51 5050 434d 4947 485f
00000010: 445d 4c56 4749 6b48 4b7f 444b 635a 5460
00000020: 5d3c 5f36 3049 3859 4044 5a42 554f 526d
00000030: 5a4c 4a5e 5967

model/batch_normalization_2/FusedBatchNormV31 i1 [54] scale=0.009719579 zero_point=0
-1.0011166 -0.24298947 -0.6706509 -0.83588374 -0.71924883 -0.30130693 -0.2624286 -0.42766145
-0.6998097 -0.7678467 -0.4471006 -0.7678467 -0.4471006 -0.21383072 -0.6998097 -0.29158735
-0.6414922 -0.991397 -0.8164446 -0.25270903 -0.7095292 -0.30130693 -0.88448167 -0.21383072
-0.2235503 -0.9816774 -0.65121174 -0.3110265 -0.20411114 -0.47625935 -0.06803705 -0.2624286
-0.33046567 -0.554016 -0.15551326 -0.3207461 -0.38878316 -0.65121174 -0.37906358 -0.34990484
-0.34990484 -0.5928943 -0.23326989 -0.3207461 -0.08747621 -0.7775663 -0.2624286 -1.2343864
-0.7775663 -0.7678467 -0.34018525 -0.24298947 -0.21383072 -0.29158735
00000000: 99e7 bbaa b6e1 e5d4 b8b1 d2b1 d2ea b8e2
00000010: be9a ace6 b7e1 a5ea e99b bde0 ebcf f9e5
00000020: dec7 f0df d8bd d9dc dcc3 e8df f7b0 e581
00000030: b0b1 dde7 eae2

model/batch_normalization_3/FusedBatchNormV3 i1 [55] scale=0.0020179711 zero_point=0
0.1473119 0.18565334 0.19170725 0.17556348 0.19372523 0.17152755 0.23408465 0.12309624
0.15941972 0.17758146 0.13520406 0.13722204 0.14529392 0.25628233 0.19372523 0.14932987
0.11502436 0.117042325 0.17556348 0.15538378 0.1674916 0.16547364 0.15740174 0.1674916
0.1473119 0.20785102 0.17959943 0.11300638 0.24013856 0.16345567 0.1533658 0.17959943
0.12107827 0.19170725 0.16547364 0.22803074 0.17556348 0.13116813 0.14529392 0.14125797
0.14932987 0.17758146 0.18565334 0.209869 0.20381509 0.15740174 0.1674916 0.15538378
0.11098841 0.17354551 0.18565334 0.19372523 0.18363537 0.22803074 0.13520406
00000000: 495c 5f57 6055 743d 4f58 4344 487f 604a
00000010: 393a 574d 5352 4e53 4967 5938 7751 4c59
00000020: 3c5f 5271 5741 4846 4a58 5c68 654e 534d
00000030: 3756 5c60 5b71 43

model/batch_normalization_3/FusedBatchNormV31 i1 [55] scale=0.011688504 zero_point=0
-0.5610482 -0.47922868 -1.110408 -0.7246873 -0.5493597 -0.57273674 -0.12857355 -1.4844401
-0.36234364 -0.5844252 -0.46754017 -0.5376712 -0.61949074 -0.3039011 -0.9701459 -0.35065514
-0.5259827 -0.3039011 -0.17532757 -0.57273674 -0.57273674 -0.33896664 -0.42078614 -0.47922868
-0.5493597 -0.14026205 -0.5844252 -1.25067 -0.46754017 -0.36234364 -0.46754017 -0.21039307
-0.61949074 -0.5493597 -0.61949074 -0.43247467 -0.5844252 -0.40909764 -0.66624475 -0.5844252
-1.1220964 -0.59611374 -0.5026057 -0.40909764 -0.36234364 -0.2922126 -0.14026205 -0.22208159
-0.44416317 -0.45585167 -0.9935229 -0.5844252 -0.18701607 -0.22208159 -0.7246873
00000000: d0d7 a1c2 d1cf f581 e1ce d8d2 cbe6 ade2
00000010: d3e6 f1cf cfe3 dcd7 d1f4 ce95 d8e1 d8ee
00000020: cbd1 cbdb cedd c7ce a0cd d5dd e1e7 f4ed
00000030: dad9 abce f0ed c2

model/batch_normalization_4/FusedBatchNormV3 i1 [55] scale=0.002441709 zero_point=0
0.1098769 0.09766836 0.12941058 0.122085445 0.104993485 0.11964374 0.12941058 0.13429399
0.11720203 0.20266184 0.09278494 0.13185228 0.09034323 0.11476032 0.13917741 0.14406082
0.11964374 0.09766836 0.20266184 0.09766836 0.14650254 0.095226645 0.1074352 0.08790152
0.095226645 0.11231861 0.16847792 0.14406082 0.11720203 0.31009704 0.14894424 0.17091963
0.12696886 0.09278494 0.122085445 0.12696886 0.12941058 0.13185228 0.11231861 0.08790152
0.13673571 0.11476032 0.09278494 0.11231861 0.09278494 0.20754527 0.14406082 0.13429399
0.08545981 0.078134686 0.12452716 0.09766836 0.09766836 0.10011007 0.13673571
00000000: 2d28 3532 2b31 3537 3053 2636 252f 393b
00000010: 3128 5328 3c27 2c24 272e 453b 307f 3d46
00000020: 3426 3234 3536 2e24 382f 262e 2655 3b37
00000030: 2320 3328 2829 38

model/batch_normalization_4/FusedBatchNormV31 i1 [55] scale=0.011105521 zero_point=0
-0.33316562 -0.49974844 -0.5663816 -0.810703 -0.51085395 -0.6441202 -0.61080366 -0.46643186
-0.33316562 -1.1438687 -0.5996981 -0.36648217 -1.0217079 -0.6885423 -0.6441202 -0.7773864
-0.6996478 -0.7107533 -0.66633123 -0.4775374 -0.9328637 -1.4104011 -0.5441705 -0.8218085
-0.34427115 -0.61080366 -0.62190914 -0.3886932 -0.55527604 -0.61080366 -0.5996981 -0.31095457
-0.3775877 -0.83291405 -0.3220601 -0.6552257 -0.83291405 -0.62190914 -0.83291405 -0.7995975
-0.8218085 -0.62190914 -0.4775374 -0.46643186 -0.6441202 -0.61080366 -0.5219595 -0.7995975
-0.6441202 -0.83291405 -0.6885423 -0.31095457 -0.5441705 -0.87733614 -1.0550245
00000000: e2d3 cdb7 d2c6 c9d6 e299 cadf a4c2 c6ba
00000010: c1c0 c4d5 ac81 cfb6 e1c9 c8dd cec9 cae4
00000020: deb5 e3c5 b5c8 b5b8 b6c8 d5d6 c6c9 d1b8
00000030: c6b5 c2e4 cfb1 a1

model/batch_normalization_5/FusedBatchNormV3 i1 [56] scale=0.001972314 zero_point=0
0.1972314 0.17356363 0.169619 0.19131446 0.2268161 0.20709297 0.24259461 0.21498223
0.11833884 0.17159131 0.169619 0.17948057 0.1834252 0.21300991 0.17553595 0.19131446
0.15384048 0.15778512 0.25048387 0.17356363 0.0986157 0.11833884 0.1262281 0.12820041
0.2268161 0.15778512 0.15384048 0.16172975 0.16172975 0.1853975 0.16172975 0.16370206
0.14989586 0.23865 0.1853975 0.15778512 0.19131446 0.21300991 0.11636652 0.23865
0.15975744 0.16370206 0.17159131 0.10256033 0.17356363 0.17356363 0.16370206 0.1853975
0.19525908 0.20314834 0.19525908 0.1420066 0.21498223 0.1972314 0.1834252 0.18145289
00000000: 6458 5661 7369 7b6d 3c57 565b 5d6c 5961
00000010: 4e50 7f58 323c 4041 7350 4e52 525e 5253
00000020: 4c79 5e50 616c 3b79 5153 5734 5858 535e
00000030: 6367 6348 6d64 5d5c

model/batch_normalization_5/FusedBatchNormV31 i1 [56] scale=0.00972661 zero_point=0
-0.6614095 -0.94348115 -0.8073086 -0.5544168 -0.8753949 -0.81703526 -0.4766039 -0.39879102
-0.1945322 -0.35015798 -0.33070475 -0.8364885 -0.57387 -0.45715067 -0.81703526 -0.61277646
-0.46687728 -0.56414336 -0.61277646 -0.90457475 -1.0310206 -0.71004254 -0.6808627 -0.72949576
-0.27234507 -0.73922235 -0.6711361 -0.9532078 -0.57387 -0.5544168 -0.3890644 -0.70031595
-0.52523696 -0.14589915 -0.59332323 -1.2352794 -0.8364885 -0.13617253 -0.8851215 -0.6030498
-0.42797083 -0.5544168 -0.8851215 -1.0115675 -0.3015249 -0.46687728 -0.64195627 -0.36961117
-0.7781288 -0.3890644 -0.6711361 -0.2917983 -0.73922235 -0.36961117 -0.3890644 -0.34043136
00000000: bc9f adc7 a6ac cfd7 ecdc deaa c5d1 acc1
00000010: d0c6 c1a3 96b7 bab5 e4b4 bb9e c5c7 d8b8
00000020: caf1 c381 aaf2 a5c2 d4c7 a598 e1d0 beda
00000030: b0d8 bbe2 b4da d8dd

model/batch_normalization_6/FusedBatchNormV3 i1 [56] scale=0.0022432732 zero_point=0
0.14805603 0.1592724 0.12338003 0.15029931 0.13908294 0.074028015 0.10094729 0.19292149
0.27367932 0.21311095 0.16600221 0.2175975 0.11665021 0.15702912 0.17721859 0.2848957
0.11889348 0.16375895 0.19965132 0.20189458 0.1256233 0.21086767 0.23554368 0.10094729
0.17048876 0.25348988 0.19965132 0.17048876 0.10992039 0.19292149 0.07627129 0.121136755
0.14581276 0.20413786 0.21086767 0.20638113 0.19740804 0.21311095 0.12786657 0.07178474
0.16151567 0.23105714 0.18170513 0.21311095 0.15478586 0.19740804 0.15029931 0.20413786
0.15029931 0.18843494 0.20413786 0.11889348 0.16151567 0.16375895 0.13459639 0.18170513
00000000: 4247 3743 3e21 2d56 7a5f 4a61 3446 4f7f
00000010: 3549 595a 385e 692d 4c71 594c 3156 2236
00000020: 415b 5e5c 585f 3920 4867 515f 4558 435b
00000030: 4354 5b35 4849 3c51

model/batch_normalization_6/FusedBatchNormV31 i1 [56] scale=0.011135799 zero_point=0
-0.31180236 -0.41202456 -0.80177754 -0.61246896 -0.36748135 -1.4142464 -0.8574565 -0.76837015
-0.76837015 -0.56792575 -0.45656776 -0.57906157 -0.7126911 -0.24498758 -0.47883934 -0.32293817
-0.501111 -0.31180236 -0.36748135 -0.34520978 -0.16703698 -0.40088877 -0.25612336 -0.56792575
-0.44543195 -0.87972814 -0.35634556 -0.5456541 -0.5901973 -0.34520978 -1.0913082 -0.8685923
-0.40088877 -0.36748135 -0.8685923 -0.8574565 -0.52338254 -0.26725918 -0.72382694 -1.1581231
-0.7460985 -0.63474053 -0.35634556 -0.30066657 -0.47883934 -0.87972814 -0.43429616 -0.37861717
-0.13362959 -0.44543195 -0.8685923 -0.32293817 -0.46770355 -0.17817278 -0.63474053 -0.8240491
00000000: e4db b8c9 df81 b3bb bbcd d7cc c0ea d5e3
00000010: d3e4 dfe1 f1dc e9cd d8b1 e0cf cbe1 9eb2
00000020: dcdf b2b3 d1e8 bf98 bdc7 e0e5 d5b1 d9de
00000030: f4d8 b2e3 d6f0 c7b6

model/batch_normalization_7/FusedBatchNormV3 i1 [57] scale=0.0015508224 zero_point=0
0.054278784 0.049626317 0.02636398 0.08219359 0.08064277 0.14267567 0.055829607 0.08374441
0.03256727 0.048075493 0.08374441 0.048075493 0.05117714 0.041872203 0.07288865 0.16283636
0.018609868 0.12251497 0.048075493 0.11010839 0.05117714 0.05117714 0.029465625 0.05738043
0.048075493 0.05893125 0.020160692 0.099252634 0.13647237 0.19695444 0.05272796 0.043423027
0.03256727 0.024813158 0.029465625 0.05738043 0.071337834 0.055829607 0.06823619 0.040321384
0.08219359 0.03877056 0.043423027 0.1178625 0.08219359 0.11321004 0.15042977 0.06978701
0.060482074 0.15818389 0.15042977 0.12716743 0.041872203 0.048075493 0.021711513 0.12251497
0.14112484
00000000: 2320 1135 345c 2436 151f 361f 211b 2f69
00000010: 0c4f 1f47 2121 1325 1f26 0d40 587f 221c
00000020: 1510 1325 2e24 2c1a 3519 1c4c 3549 612d
00000030: 2766 6152 1b1f 0e4f 5b

model/batch_normalization_7/FusedBatchNormV31 i1 [57] scale=0.009837515 zero_point=0
-0.6099259 -0.1278877 -0.5312258 -0.15740024 -0.14756273 -0.31480047 -0.09837515 -0.03935006
-0.35415053 -0.69846356 -0.24593787 -0.84602624 0.03935006 -0.2557754 -0.18691278 -0.08853763
-0.37382555 -0.1278877 -0.009837515 -0.2557754 -0.7673262 0.2754504 -0.64927596 -0.63943845
-0.15740024 0.07870012 -0.18691278 -0.07870012 -0.049187575 -0.28528792 -0.9345639 -0.61976343
-0.5509008 -0.67878854 -0.7476511 0.03935006 -0.23610035 -0.84602624 -1.2493644 -0.62960094
-0.09837515 -0.91488886 -0.63943845 -0.1377252 -0.17707527 -0.30496296 -0.11805017 -0.32463798
-0.11805017 -0.01967503 -0.01967503 -0.09837515 -0.62960094 0.11805017 -0.28528792 0.029512543
-0.31480047
00000000: c2f3 caf0 f1e0 f6fc dcb9 e7aa 04e6 edf7
00000010: daf3 ffe6 b21c bebf f008 edf8 fbe3 a1c1
00000020: c8bb b404 e8aa 81c0 f6a3 bff2 eee1 f4df
00000030: f4fe fef6 c00c e303 e0

model/batch_normalization_8/FusedBatchNormV3 i1 [57] scale=0.025009744 zero_point=0
0.050019488 0.4001559 0.27510718 0.07502923 0.12504873 0.27510718 0.07502923 0.47518513
0.100038975 0.050019488 0.5752241 0.15005846 0.100038975 0.100038975 0.100038975 0.15005846
2.2758868 0.050019488 0.4501754 0.07502923 0.07502923 0.20007795 0.050019488 0.050019488
0.07502923 0.100038975 0.050019488 0.050019488 0.050019488 0.15005846 0.27510718 0.15005846
0.07502923 0.050019488 0.07502923 0.050019488 0.2250877 1.0253994 0.20007795 0.1750682
1.2504872 1.2254775 2.9011302 0.07502923 0.30011693 0.12504873 0.12504873 0.07502923
0.1750682 0.12504873 0.050019488 0.5001949 0.100038975 0.60023385 0.12504873 0.050019488
3.1762376
00000000: 0210 0b03 050b 0313 0402 1706 0404 0406
00000010: 5b02 1203 0308 0202 0304 0202 0206 0b06
00000020: 0302 0302 0929 0807 3231 7403 0c05 0503
00000030: 0705 0214 0418 0502 7f

model/batch_normalization_8/FusedBatchNormV31 i1 [57] scale=0.0137963 zero_point=0
0.0137963 -0.0689815 0.3725001 0.0 -0.0551852 -0.0965741 0.275926 -0.1655556
-1.1588892 -0.0965741 -0.0965741 -0.1241667 -0.689815 -1.0209262 -0.0827778 -1.6831486
-0.1655556 -0.0137963 0.2345371 -0.0137963 -0.3173149 -0.2897223 -0.4000927 0.0551852
-0.9381484 -1.0209262 -0.1793519 -0.0413889 -0.1931482 -0.3725001 -0.7863891 -0.1241667
-0.9381484 0.0275926 0.1241667 -0.1655556 -0.1241667 -0.2897223 0.1103704 -0.1655556
-1.200278 -0.0689815 -0.2621297 -1.4210188 -0.0275926 -0.4690742 -0.2483334 -0.1655556
-1.75213 -0.1793519 0.0 -0.0827778 0.86916685 -0.275926 -0.0689815 -0.1931482
-0.5104631
00000000: 01fb 1b00 fcf9 14f4 acf9 f9f7 ceb6 fa86
00000010: f4ff 11ff e9eb e304 bcb6 f3fd f2e5 c7f7
00000020: bc02 09f4 f7eb 08f4 a9fb ed99 fede eef4
00000030: 81f3 00fa 3fec fbf2 db

model/dense/MatMul i1 [128, 57] scale=0.046300028 zero_point=0
0.23150013 0.74080044 0.046300028 -0.23150013 0.18520011 0.18520011 0.55560035 0.23150013
0.046300028 -0.27780017 -0.74080044 0.092600055 0.27780017 0.046300028 -0.13890009 -0.6482004
0.5093003 0.046300028 -0.55560035 -0.23150013 -0.60190034 -0.23150013 -0.6945004 0.18520011
-1.4816009 -1.805701 -0.37040022 0.27780017 -0.18520011 0.18520011 0.41670024 0.74080044
-0.6945004 0.0 0.3241002 -0.23150013 1.5279009 0.13890009 -0.46300027 0.60190034
-0.046300028 0.3241002 0.046300028 -0.23150013 0.23150013 0.41670024 -0.3241002 -0.37040022
-1.7594011 1.4353008 0.046300028 0.46300027 0.046300028 -0.046300028 -0.46300027 -0.92600054
0.27780017 0.13890009 -0.27780017 0.18520011 -0.092600055 -0.13890009 0.092600055 -0.6945004
-1.1112007 -0.046300028 -0.046300028 0.55560035 1.3427008 1.5279009 -0.37040022 -0.18520011
0.046300028 -0.13890009 -0.46300027 -0.3241002 -1.7594011 0.3241002 0.60190034 -0.74080044
-0.27780017 -1.2501007 -0.92600054 -0.7871005 -0.74080044 -0.55560035 0.13890009 -0.3241002
1.1112007 -0.092600055 -0.092600055 0.092600055 -0.6482004 0.0 0.0 -0.7871005
0.13890009 -0.41670024 0.18520011 0.13890009 0.0 0.41670024 1.7594011 -0.41670024
0.092600055 -0.6945004 -0.55560035 -0.18520011 -0.41670024 0.5093003 0.46300027 -0.23150013
-0.74080044 0.6482004 -0.37040022 -0.18520011 -0.092600055 0.18520011 -0.3241002 0.092600055
0.046300028 -0.60190034 -0.092600055 -0.18520011 -1.0186006 0.7871005 0.87970054 0.18520011
0.046300028 -0.55560035 0.18520011 -0.55560035 -0.5093003 -1.3890008 -0.046300028 0.3241002
-0.23150013 -0.9723006 -2.1761012 -1.4353008 -0.27780017 -0.60190034 -0.092600055 -1.0649006
0.27780017 1.4816009 0.092600055 -0.18520011 -0.23150013 -0.13890009 0.87970054 -0.55560035
-0.41670024 0.46300027 -0.18520011 -0.092600055 0.13890009 0.092600055 1.2038007 0.92600054
0.7871005 -0.046300028 -0.3241002 0.0 -0.13890009 -0.13890009 0.6945004 -0.092600055
-0.27780017 0.18520011 0.13890009 -1.5279009 -0.13890009 -5.093003 -1.9446012 -0.37040022
-0.27780017 -1.574201 -0.18520011 0.41670024 -0.9723006 -0.3241002 -0.092600055 0.3241002
0.13890009 -0.8334005 0.0 0.092600055 -1.666801 -0.55560035 -2.9632018 0.41670024
0.37040022 -0.41670024 -2.1761012 0.0 0.0 -1.2038007 -1.0186006 -0.74080044
0.23150013 0.3241002 0.18520011 0.5093003 -1.5279009 -2.0835013 -0.92600054 -0.27780017
0.41670024 -0.6482004 0.7871005 1.4816009 0.0 0.18520011 0.74080044 0.18520011
-0.23150013 0.23150013 -0.046300028 0.46300027 0.92600054 -1.3890008 0.18520011 -1.713101
-0.23150013 -1.1112007 -0.6482004 1.2038007 -1.9909012 -0.27780017 -4.2596025 -1.9446012
0.41670024 -0.18520011 -1.574201 -0.18520011 0.3241002 -0.41670024 -0.3241002 -0.27780017
0.60190034 -0.046300028 -1.0186006 0.55560035 1.7594011 -1.805701 -1.1112007 -2.8706017
0.92600054 0.37040022 -0.13890009 -2.5928016 -0.3241002 0.23150013 -0.60190034 -1.1575007
00000000: 0510 01fb 0404 0c05 01fa f002 0601 fdf2
00000010: 0b01 f4fb f3fb f104 e0d9 f806 fc04 0910
00000020: f100 07fb 2103 f60d ff07 01fb 0509 f9f8
00000030: da1f 010a 01ff f6ec 0603 fa04 fefd 02f1
00000040: e8ff ff0c 1d21 f8fc 01fd f6f9 da07 0df0
00000050: fae5 ecef f0f4 03f9 18fe fe02 f200 00ef
00000060: 03f7 0403 0009 26f7 02f1 f4fc f70b 0afb
00000070: f00e f8fc fe04 f902 01f3 fefc ea11 1304
00000080: 01f4 04f4 f5e2 ff07 fbeb d1e1 faf3 fee9
00000090: 0620 02fc fbfd 13f4 f70a fcfe 0302 1a14
000000a0: 11ff f900 fdfd 0ffe fa04 03df fd92 d6f8
000000b0: fade fc09 ebf9 fe07 03ee 0002 dcf4 c009
000000c0: 08f7 d100 00e6 eaf0 0507 040b dfd3 ecfa
000000d0: 09f2 1120 0004 1004 fb05 ff0a 14e2 04db
000000e0: fbe8 f21a d5fa a4d6 09fc defc 07f7 f9fa
000000f0: 0dff ea0c 26d9 e8c2 1408 fdc8 f905 f3e7

model/dense_1/MatMul i1 [1, 128] scale=0.0027301095 zero_point=0
-0.11193449 -0.11193449 -0.10101405 -0.14742592 -0.30850238 -0.07371296 -0.09555383 0.065522626
0.09009361 0.09282372 0.09555383 0.13923559 0.11739471 0.18291734 0.3467239 0.16653667
0.07098284 0.103744164 -0.24297975 0.13650547 -0.12012482 0.10920438 -0.12831515 0.11739471
-0.103744164 -0.09555383 0.16380657 -0.12831515 -0.14742592 0.14742592 -0.0573323 -0.13104525
0.13104525 -0.21840876 0.1146646 0.122854926 -0.14196569 0.11739471 0.14742592 0.068252735
-0.21021843 0.12558503 -0.122854926 0.14742592 -0.19110766 0.09555383 0.10647427 -0.122854926
0.16926679 -0.087363504 -0.103744164 0.08190329 -0.10101405 0.122854926 0.14196569 -0.11193449
-0.1146646 -0.15015602 0.16926679 -0.068252735 -0.13104525 0.12831515 -0.09282372 0.15834635
0.10920438 0.15834635 0.16926679 -0.16653667 -0.068252735 0.07917318 -0.19383778 0.15561624
-0.16107646 -0.15015602 0.13104525 0.09828394 -0.21294855 -0.11739471 0.084633395 0.12012482
0.10101405 -0.15561624 0.16107646 0.06279252 0.12831515 -0.12012482 -0.068252735 -0.27574107
0.087363504 -0.08190329 -0.09828394 0.12831515 -0.122854926 -0.24570985 0.13923559 -0.12831515
0.10920438 0.11739471 -0.12831515 -0.12558503 0.13377537 -0.084633395 0.09282372 0.20748833
-0.14196569 -0.06006241 0.18018723 0.122854926 -0.17472701 0.12831515 0.13650547 -0.09828394
0.11739471 -0.07371296 0.10920438 -0.15834635 -0.24297975 0.11193449 0.11739471 -0.28120127
0.051872082 0.10647427 -0.12012482 0.10920438 -0.09828394 -0.08190329 0.15834635 -0.12831515
00000000: d7d7 dbca 8fe5 dd18 2122 2333 2b43 7f3d
00000010: 1a26 a732 d428 d12b dadd 3cd1 ca36 ebd0
00000020: 30b0 2a2d cc2b 3619 b32e d336 ba23 27d3
00000030: 3ee0 da1e db2d 34d7 d6c9 3ee7 d02f de3a
00000040: 283a 3ec3 e71d b939 c5c9 3024 b2d5 1f2c
00000050: 25c7 3b17 2fd4 e79b 20e2 dc2f d3a6 33d1
00000060: 282b d1d2 31e1 224c ccea 422d c02f 32dc
00000070: 2be5 28c6 a729 2b99 1327 d428 dce2 3ad1

model/conv2d/Conv2D i1 [54, 3, 3, 1]
-1 63 75 -83 -127 -84 17 23
4 -82 -26 103 -72 127 25 39
81 -54 35 127 15 -32 -41 -7
-7 7 -25 -40 -84 -9 -33 127
-44 44 -44 0 -58 -106 -70 11
-127 -13 40 -82 105 28 123 -67
41 20 -95 -56 -127 -76 5 89
74 127 -22 -25 -19 -73 -72 -22
-127 -87 -83 -100 -101 55 -1 -65
40 -24 69 127 -6 37 48 -44
-9 -78 -58 -93 73 4 25 127
74 95 81 122 -80 -38 -121 -33
-25 -26 127 90 14 -11 -127 -23
18 87 1 -13 100 -111 -7 -67
-19 -6 -86 127 -14 -26 5 4
127 -3 -8 -27 1 -3 6 127
-18 -17 -24 21 -8 -40 9 -127
5 117 -62 2 5 118 -82 -102
25 7 98 -34 -64 127 -104 -103
-24 -127 8 65 41 26 59 24
-18 -55 -35 72 -51 -98 119 36
-127 76 50 -62 -10 -4 127 7
5 -30 2 -2 56 113 28 -28
127 15 -73 26 -40 -2 9 7
-121 -127 -6 -121 -127 -13 15 -32
18 12 -127 -8 -8 -113 -11 12
-33 5 54 -31 -14 -29 127 -7
1 16 -5 -4 -72 -8 -3 127
-1 -24 24 -2 4 127 -16 17
-28 11 -2 -33 7 14 127 -10
-19 -25 3 -32 -34 7 -8 -61
127 32 -19 61 -118 0 -28 10
00000000: ff3f 4bad 81ac 1117 04ae e667 b87f 1927
00000010: 51ca 237f 0fe0 d7f9 f907 e7d8 acf7 df7f
00000020: d42c d400 c696 ba0b 81f3 28ae 691c 7bbd
00000030: 2914 a1c8 81b4 0559 4a7f eae7 edb7 b8ea
00000040: 81a9 ad9c 9b37 ffbf 28e8 457f fa25 30d4
00000050: f7b2 c6a3 4904 197f 4a5f 517a b0da 87df
00000060: e7e6 7f5a 0ef5 81e9 1257 01f3 6491 f9bd
00000070: edfa aa7f f2e6 0504 7ffd f8e5 01fd 067f
00000080: eeef e815 f8d8 0981 0575 c202 0576 ae9a
00000090: 1907 62de c07f 9899 e881 0841 291a 3b18
000000a0: eec9 dd48 cd9e 7724 814c 32c2 f6fc 7f07
000000b0: 05e2 02fe 3871 1ce4 7f0f b71a d8fe 0907
000000c0: 8781 fa87 81f3 0fe0 120c 81f8 f88f f50c
000000d0: df05 36e1 f2e3 7ff9 0110 fbfc b8f8 fd7f
000000e0: ffe8 18fe 047f f011 e40b fedf 070e 7ff6
000000f0: ede7 03e0 de07 f8c3 7f20 ed3d 8a00 e40a

model/conv2d_1/Conv2D i1 [54, 3, 3, 54]
27 -25 18 -10 20 -13 -17 6
-38 -5 4 3 -25 -22 -9 -3
21 7 -5 -1 -10 23 4 -17
-31 -4 -20 -12 8 -7 -2 -30
5 24 -12 24 -3 24 1 5
-2 -13 -15 -1 -25 -7 -2 8
13 7 20 18 17 -27 40 5
42 0 47 11 -31 -22 -12 -18
0 -26 -24 -67 -60 -5 5 10
1 -3 -25 -1 -2 -55 -51 -24
-80 11 11 -19 21 -33 -11 25
-2 -27 -28 -26 -32 9 -3 -3
-20 -8 -25 -50 -33 -7 -36 30
-13 -11 -8 -24 7 6 -3 3
-8 -11 -25 4 4 -25 12 -4
0 -23 -14 -22 -5 -12 -1 6
26 1 -5 -2 7 -19 -13 -3
-17 -4 -17 -17 7 20 10 32
-8 9 -15 -17 -29 -10 -39 8
-6 -1 -13 -22 -6 12 9 4
-11 -4 -29 -7 -17 18 -7 0
-31 -8 -16 -21 4 1 -22 -23
-11 -38 -14 1 3 -13 -18 -21
-26 -18 -8 -6 -32 19 -5 13
-1 -10 10 22 -22 20 -23 12
-3 21 -18 -7 -3 2 -6 -22
-6 18 -10 -6 34 25 -9 -42
-48 29 -56 -10 8 33 -37 -39
-20 -28 -17 -19 -10 -37 -127 6
-23 0 18 -18 -25 -40 -42 -50
-53 -12 -103 12 -21 -8 4 21
-36 12 -21 34 -19 24 -13 4
00000000: 1be7 12f6 14f3 ef06 dafb 0403 e7ea f7fd
00000010: 1507 fbff f617 04ef e1fc ecf4 08f9 fee2
00000020: 0518 f418 fd18 0105 fef3 f1ff e7f9 fe08
00000030: 0d07 1412 11e5 2805 2a00 2f0b e1ea f4ee
00000040: 00e6 e8bd c4fb 050a 01fd e7ff fec9 cde8
00000050: b00b 0bed 15df f519 fee5 e4e6 e009 fdfd
00000060: ecf8 e7ce dff9 dc1e f3f5 f8e8 0706 fd03
00000070: f8f5 e704 04e7 0cfc 00e9 f2ea fbf4 ff06
00000080: 1a01 fbfe 07ed f3fd effc efef 0714 0a20
00000090: f809 f1ef e3f6 d908 faff f3ea fa0c 0904
000000a0: f5fc e3f9 ef12 f900 e1f8 f0eb 0401 eae9
000000b0: f5da f201 03f3 eeeb e6ee f8fa e013 fb0d
000000c0: fff6 0a16 ea14 e90c fd15 eef9 fd02 faea
000000d0: fa12 f6fa 2219 f7d6 d01d c8f6 0821 dbd9
000000e0: ece4 efed f6db 8106 e900 12ee e7d8 d6ce
000000f0: cbf4 990c ebf8 0415 dc0c eb22 ed18 f304

model/conv2d_2/Conv2D i1 [55, 3, 3, 54]
31 17 -48 -48 -4 17 -8 -2
-8 57 -9 4 -43 -2 0 26
-74 -54 -52 42 -5 -82 -5 -19
32 7 8 -56 4 31 19 0
-30 6 -13 54 36 -53 -35 -94
19 18 19 -26 -42 -8 -7 -9
-47 -51 -29 18 48 14 -34 -69
0 37 -19 19 -27 33 2 2
16 -46 -3 31 -2 -18 -20 11
6 -10 30 33 4 -75 -15 23
-61 12 -12 22 24 -20 -2 -34
-11 -4 -30 34 36 31 -25 -52
-15 -2 17 11 36 39 46 -27
-27 18 -19 42 -38 1 4 9
-24 0 8 -1 6 -40 17 14
8 35 -65 25 -27 6 -23 3
10 24 -21 -30 -75 14 9 45
-3 -4 21 10 8 1 31 -32
20 9 -11 -10 -16 -44 24 -12
2 19 22 -26 -26 11 20 -3
11 -8 31 22 13 -45 -8 50
29 31 -8 3 -74 20 -6 1
40 26 13 19 -51 -11 -8 16
-27 53 34 4 23 -44 10 17
24 -74 -34 3 17 -24 81 9
-1 32 73 -40 -18 4 43 -5
-9 -14 -24 -85 35 34 14 -26
29 -66 12 1 -26 -52 -27 61
-17 -28 -21 8 46 27 30 24
22 -16 -15 -70 1 38 -39 -59
-25 39 3 -14 -2 -10 48 -31
-6 18 -43 -35 20 70 67 49
00000000: 1f11 d0d0 fc11 f8fe f839 f704 d5fe 001a
00000010: b6ca cc2a fbae fbed 2007 08c8 041f 1300
00000020: e206 f336 24cb dda2 1312 13e6 d6f8 f9f7
00000030: d1cd e312 300e debb 0025 ed13 e521 0202
00000040: 10d2 fd1f feee ec0b 06f6 1e21 04b5 f117
00000050: c30c f416 18ec fede f5fc e222 241f e7cc
00000060: f1fe 110b 2427 2ee5 e512 ed2a da01 0409
00000070: e800 08ff 06d8 110e 0823 bf19 e506 e903
00000080: 0a18 ebe2 b50e 092d fdfc 150a 0801 1fe0
00000090: 1409 f5f6 f0d4 18f4 0213 16e6 e60b 14fd
000000a0: 0bf8 1f16 0dd3 f832 1d1f f803 b614 fa01
000000b0: 281a 0d13 cdf5 f810 e535 2204 17d4 0a11
000000c0: 18b6 de03 11e8 5109 ff20 49d8 ee04 2bfb
000000d0: f7f2 e8ab 2322 0ee6 1dbe 0c01 e6cc e53d
000000e0: efe4 eb08 2e1b 1e18 16f0 f1ba 0126 d9c5
000000f0: e727 03f2 fef6 30e1 fa12 d5dd 1446 4331

model/conv2d_3/Conv2D i1 [55, 3, 3, 55]
-43 30 -17 0 -9 66 -9 -22
-17 -11 19 3 -34 82 11 -24
-47 -23 -116 92 13 -43 -22 -95
-26 -8 -44 -32 9 -49 -37 -44
-13 -7 20 -25 -38 -6 4 -27
27 85 -5 -35 20 -26 31 8
-68 -12 -46 5 -39 61 -51 31
-11 29 -17 1 0 -104 0 -32
-23 14 -4 -33 29 9 -6 6
-9 -78 -17 15 38 -11 12 36
-14 28 -10 -54 6 49 8 -8
3 10 34 -13 6 79 -36 21
-30 -27 15 1 -11 1 -6 -11
-14 11 -56 10 -50 14 -3 1
2 0 0 4 -2 -1 0 -3
1 4 -4 1 2 -1 -2 -2
-1 -2 1 -2 0 4 2 1
-2 0 -1 -3 -2 0 1 4
-4 1 4 4 2 2 2 1
-1 -2 3 4 -2 -4 -3 -2
-3 1 1 3 0 -6 28 -8
1 -17 45 42 -17 34 -31 43
22 -54 -38 -30 36 46 21 -9
87 25 -54 -78 -41 -68 24 23
-37 75 35 25 -45 44 49 32
-17 -68 62 105 40 -99 -43 12
-9 -31 -10 -4 -2 17 -127 20
-23 6 36 -16 17 -20 -16 -18
-32 -2 12 -51 -26 -53 22 48
35 46 35 25 -12 7 -11 -40
13 50 -21 2 -39 -59 -47 4
-59 54 45 -8 17 -85 56 1
00000000: d51e ef00 f742 f7ea eff5 1303 de52 0be8
00000010: d1e9 8c5c 0dd5 eaa1 e6f8 d4e0 09cf dbd4
00000020: f3f9 14e7 dafa 04e5 1b55 fbdd 14e6 1f08
00000030: bcf4 d205 d93d cd1f f51d ef01 0098 00e0
00000040: e90e fcdf 1d09 fa06 f7b2 ef0f 26f5 0c24
00000050: f21c f6ca 0631 08f8 030a 22f3 064f dc15
00000060: e2e5 0f01 f501 faf5 f20b c80a ce0e fd01
00000070: 0200 0004 feff 00fd 0104 fc01 02ff fefe
00000080: fffe 01fe 0004 0201 fe00 fffd fe00 0104
00000090: fc01 0404 0202 0201 fffe 0304 fefc fdfe
000000a0: fd01 0103 00fa 1cf8 01ef 2d2a ef22 e12b
000000b0: 16ca dae2 242e 15f7 5719 cab2 d7bc 1817
000000c0: db4b 2319 d32c 3120 efbc 3e69 289d d50c
000000d0: f7e1 f6fc fe11 8114 e906 24f0 11ec f0ee
000000e0: e0fe 0ccd e6cb 1630 232e 2319 f407 f5d8
000000f0: 0d32 eb02 d9c5 d104 c536 2df8 11ab 3801

model/conv2d_4/Conv2D i1 [56, 3, 3, 55]
5 5 0 3 -3 -4 5 3
4 -2 4 3 0 1 5 -3
5 -5 -4 2 1 -3 3 2
-3 1 -3 -2 -1 -4 -3 0
-2 2 4 2 0 -1 -3 -2
4 5 4 5 -4 3 0 -3
5 -4 -4 5 -5 5 -3 -15
-10 122 46 27 42 24 4 -44
-35 -15 9 -29 -2 16 -13 -31
-2 17 27 39 2 9 25 -30
-4 -14 -34 1 -11 26 -50 26
7 -27 67 -5 -32 13 -1 71
-43 -11 -41 12 57 -24 -82 -16
9 37 11 24 -25 -35 -2 0
-2 -4 4 4 3 2 0 1
0 0 -4 5 5 -4 -3 1
5 4 1 -4 3 3 -4 -4
-1 -1 0 -5 1 -5 -2 0
1 4 1 1 3 -2 2 2
-4 3 -2 2 1 1 -2 0
2 -4 2 0 -1 3 2 2
3 -2 -2 0 -4 2 -3 3
2 1 -2 -5 0 5 -3 4
3 -2 -5 -3 2 3 1 2
4 2 4 2 -4 -2 -3 -1
1 5 -1 3 4 2 -1 1
2 -2 -2 -1 -3 1 -1 1
-3 -3 2 1 10 -17 26 21
-5 68 83 19 -39 49 -25 -21
-74 38 39 -78 -6 5 63 -127
-94 44 -32 -29 -47 -45 12 -82
40 -10 10 -16 -56 -45 -60 -70
00000000: 0505 0003 fdfc 0503 04fe 0403 0001 05fd
00000010: 05fb fc02 01fd 0302 fd01 fdfe fffc fd00
00000020: fe02 0402 00ff fdfe 0405 0405 fc03 00fd
00000030: 05fc fc05 fb05 fdf1 f67a 2e1b 2a18 04d4
00000040: ddf1 09e3 fe10 f3e1 fe11 1b27 0209 19e2
00000050: fcf2 de01 f51a ce1a 07e5 43fb e00d ff47
00000060: d5f5 d70c 39e8 aef0 0925 0b18 e7dd fe00
00000070: fefc 0404 0302 0001 0000 fc05 05fc fd01
00000080: 0504 01fc 0303 fcfc ffff 00fb 01fb fe00
00000090: 0104 0101 03fe 0202 fc03 fe02 0101 fe00
000000a0: 02fc 0200 ff03 0202 03fe fe00 fc02 fd03
000000b0: 0201 fefb 0005 fd04 03fe fbfd 0203 0102
000000c0: 0402 0402 fcfe fdff 0105 ff03 0402 ff01
000000d0: 02fe feff fd01 ff01 fdfd 0201 0aef 1a15
000000e0: fb44 5313 d931 e7eb b626 27b2 fa05 3f81
000000f0: a22c e0e3 d1d3 0cae 28f6 0af0 c8d3 c4ba

model/conv2d_5/Conv2D i1 [56, 3, 3, 56]
-1 1 4 2 5 -4 0 -2
5 -5 1 1 -4 -5 3 -1
-5 2 -1 2 1 1 3 5
3 0 -3 -1 3 -2 -5 -1
0 1 0 0 4 -2 4 1
3 -1 -3 -2 5 2 5 2
1 -2 2 -4 5 2 -5 1
-38 21 25 29 -6 -97 -3 -54
19 -41 -19 23 -79 -27 7 26
-56 16 44 29 -1 -62 -59 -30
-31 -19 18 -32 5 -30 6 23
-16 91 -41 33 -17 23 -14 -25
-64 43 -12 13 -26 -6 -83 -43
-6 -19 3 32 3 19 -12 -52
-5 -2 -5 -5 1 1 2 3
2 -4 5 -3 2 6 5 3
-6 -4 5 -1 4 5 1 -4
5 -6 -3 1 -3 3 2 3
-5 -5 2 3 4 0 3 -3
0 5 -1 0 0 -5 4 2
-5 -6 3 -1 -4 -2 0 5
-1 -2 2 0 -4 0 -5 1
0 4 0 -2 -1 1 0 -5
-3 -1 0 -5 4 -2 -1 0
-2 4 -2 1 6 3 4 2
2 2 1 -5 2 -4 0 -4
-3 1 0 3 5 -5 -4 -4
-3 -3 2 3 0 2 -4 -4
-72 9 62 -17 -39 0 64 -88
-50 -20 -39 -32 -52 91 -13 68
26 9 81 -66 50 25 -15 34
89 4 14 -4 -24 -86 -97 7
00000000: ff01 0402 05fc 00fe 05fb 0101 fcfb 03ff
00000010: fb02 ff02 0101 0305 0300 fdff 03fe fbff
00000020: 0001 0000 04fe 0401 03ff fdfe 0502 0502
00000030: 01fe 02fc 0502 fb01 da15 191d fa9f fdca
00000040: 13d7 ed17 b1e5 071a c810 2c1d ffc2 c5e2
00000050: e1ed 12e0 05e2 0617 f05b d721 ef17 f2e7
00000060: c02b f40d e6fa add5 faed 0320 0313 f4cc
00000070: fbfe fbfb 0101 0203 02fc 05fd 0206 0503
00000080: fafc 05ff 0405 01fc 05fa fd01 fd03 0203
00000090: fbfb 0203 0400 03fd 0005 ff00 00fb 0402
000000a0: fbfa 03ff fcfe 0005 fffe 0200 fc00 fb01
000000b0: 0004 00fe ff01 00fb fdff 00fb 04fe ff00
000000c0: fe04 fe01 0603 0402 0202 01fb 02fc 00fc
000000d0: fd01 0003 05fb fcfc fdfd 0203 0002 fcfc
000000e0: b809 3eef d900 40a8 ceec d9e0 cc5b f344
000000f0: 1a09 51be 3219 f122 5904 0efc e8aa 9f07

model/conv2d_6/Conv2D i1 [57, 3, 3, 56]
-2 -2 0 1 2 -1 -3 3
4 2 -1 -3 -3 -1 -1 -4
2 2 -2 0 -3 -1 2 -2
-3 0 2 -3 2 3 -1 1
-2 -1 -2 1 -2 0 1 2
-2 -1 2 -1 3 2 3 -1
-1 1 3 -4 3 -3 -2 -3
-13 -65 -72 -22 37 15 -98 -41
-19 -127 17 -7 -17 12 -10 -10
-10 40 13 -56 5 -21 29 -21
-9 5 -79 56 46 33 9 -71
9 -44 0 -39 -29 7 -80 2
-95 27 6 -77 -81 -20 45 15
-75 28 11 13 44 -10 -78 -6
-2 0 -1 1 -2 -1 -1 0
-2 -3 1 -1 2 2 1 -4
3 3 1 1 -3 -3 3 0
0 -3 2 0 -4 0 -2 0
3 3 3 4 1 2 3 -2
0 1 -2 -2 1 3 0 1
-4 3 0 3 -4 -1 1 -2
-1 -2 0 2 2 2 -1 2
1 2 0 1 3 2 3 3
2 1 3 2 3 1 -3 -1
2 1 3 -2 2 -1 3 2
3 2 0 -1 -1 -2 0 -3
-3 1 3 3 1 -3 0 1
-1 -1 -3 2 -2 -2 3 -3
-19 40 15 -8 38 6 19 -16
0 -26 4 -5 -2 21 15 5
27 21 -16 -25 -13 13 47 -12
16 -34 -23 4 -6 14 -3 0
00000000: fefe 0001 02ff fd03 0402 fffd fdff fffc
00000010: 0202 fe00 fdff 02fe fd00 02fd 0203 ff01
00000020: feff fe01 fe00 0102 feff 02ff 0302 03ff
00000030: ff01 03fc 03fd fefd f3bf b8ea 250f 9ed7
00000040: ed81 11f9 ef0c f6f6 f628 0dc8 05eb 1deb
00000050: f705 b138 2e21 09b9 09d4 00d9 e307 b002
00000060: a11b 06b3 afec 2d0f b51c 0b0d 2cf6 b2fa
00000070: fe00 ff01 feff ff00 fefd 01ff 0202 01fc
00000080: 0303 0101 fdfd 0300 00fd 0200 fc00 fe00
00000090: 0303 0304 0102 03fe 0001 fefe 0103 0001
000000a0: fc03 0003 fcff 01fe fffe 0002 0202 ff02
000000b0: 0102 0001 0302 0303 0201 0302 0301 fdff
000000c0: 0201 03fe 02ff 0302 0302 00ff fffe 00fd
000000d0: fd01 0303 01fd 0001 ffff fd02 fefe 03fd
000000e0: ed28 0ff8 2606 13f0 00e6 04fb fe15 0f05
000000f0: 1b15 f0e7 f30d 2ff4 10de e904 fa0e fd00

model/conv2d_7/Conv2D i1 [57, 3, 3, 57]
1 3 1 -3 3 5 -2 -3
1 0 -4 1 -2 0 3 1
-1 1 3 -2 -4 -2 -3 -2
5 4 -2 -2 -4 1 1 0
-1 3 4 -2 2 0 -2 3
-2 0 3 1 -2 4 0 2
3 5 -1 -1 3 0 2 -4
0 -4 -4 -2 -3 4 -3 -2
2 -4 -1 0 4 -3 0 4
1 3 -1 -3 0 4 -4 -3
1 -1 0 -2 -2 2 -3 1
-1 2 3 -3 2 -3 -1 3
4 3 -4 -2 2 -5 3 -2
-3 3 -2 4 3 0 4 3
4 -4 -2 3 -4 1 4 -3
-4 3 -2 2 -4 4 -1 0
-1 -1 -4 -4 3 2 2 -3
4 1 -3 -4 -3 0 -2 2
4 5 -2 4 3 -2 1 -2
4 0 -3 4 -1 4 1 -2
1 3 -2 -4 5 0 0 -4
-1 -1 3 -2 -1 4 -2 3
-3 -1 0 -1 -1 -1 -2 3
1 -2 -5 -2 -4 -1 1 -2
0 -1 3 -1 -5 1 0 1
-4 2 2 2 0 -1 -5 5
4 -4 -1 -4 -2 1 2 1
0 5 4 -4 2 -4 3 -5
4 2 4 -1 -16 -44 12 46
-32 24 27 -46 -42 -37 -50 92
10 27 -25 -6 -42 14 22 16
81 15 -25 -6 -28 4 -45 -35
00000000: 0103 01fd 0305 fefd 0100 fc01 fe00 0301
00000010: ff01 03fe fcfe fdfe 0504 fefe fc01 0100
00000020: ff03 04fe 0200 fe03 fe00 0301 fe04 0002
00000030: 0305 ffff 0300 02fc 00fc fcfe fd04 fdfe
00000040: 02fc ff00 04fd 0004 0103 fffd 0004 fcfd
00000050: 01ff 00fe fe02 fd01 ff02 03fd 02fd ff03
00000060: 0403 fcfe 02fb 03fe fd03 fe04 0300 0403
00000070: 04fc fe03 fc01 04fd fc03 fe02 fc04 ff00
00000080: ffff fcfc 0302 02fd 0401 fdfc fd00 fe02
00000090: 0405 fe04 03fe 01fe 0400 fd04 ff04 01fe
000000a0: 0103 fefc 0500 00fc ffff 03fe ff04 fe03
000000b0: fdff 00ff ffff fe03 01fe fbfe fcff 01fe
000000c0: 00ff 03ff fb01 0001 fc02 0202 00ff fb05
000000d0: 04fc fffc fe01 0201 0005 04fc 02fc 03fb
000000e0: 0402 04ff f0d4 0c2e e018 1bd2 d6db ce5c
000000f0: 0a1b e7fa d60e 1610 510f e7fa e404 d3dd
