apps/microtvm/grovety/cifar10/cifar_quant_8bit.tflite (tflite, 130728 bytes, 5 tensors)

sequential_2/input/Conv2D i1 [32, 3, 3, 1]
00000000: aecc 7f48 46b6 f40a be56 0d1b 0913 3181
00000010: d6c1 cf0d eefc f72d ab7f bda5 b8c7 60b2
00000020: 02df 5a7f 9900 7f01 b104 f3c7 7a37 8120
00000030: bdaf 71c2 46e2 0dc4 28d0 7fc9 41b5 f781
00000040: 1810 e562 4c10 3f93 46ee d3ad 87bd 3681
00000050: 8db5 752b 11cb 813a d546 9b21 4107 2e4f
00000060: 977f e63f a8f1 4647 ac81 0256 eb5a 811f
00000070: 58db c121 e0a3 90c8 1d14 886a 7f78 5def
00000080: eb21 8136 f9c1 44ad 7fc7 f742 d144 cc01
00000090: 053a fc34 81e5 de34 2524 fd93 e9d0 7f37
000000a0: d315 aa81 b308 6e5d 212f 13ca bb62 29e5
000000b0: 6d01 547f a0ca 7fbd d865 9202 63a9 64ed
000000c0: 4f30 7ed5 ba81 6ea2 290e 81f6 c3d3 75d9
000000d0: 2a55 e681 0d63 dc09 e31e 6fb6 8138 5892
000000e0: 2949 f481 3754 882c 18de db7f 92a8 7db5
000000f0: 20b6 6672 7cc1 81ac 6bda e108 e182 1581
-82 -52 127 72 70 -74 -12 10
-66 86 13 27 9 19 49 -127
-42 -63 -49 13 -18 -4 -9 45
-85 127 -67 -91 -72 -57 96 -78
2 -33 90 127 -103 0 127 1
-79 4 -13 -57 122 55 -127 32
-67 -81 113 -62 70 -30 13 -60
40 -48 127 -55 65 -75 -9 -127
24 16 -27 98 76 16 63 -109
70 -18 -45 -83 -121 -67 54 -127
-115 -75 117 43 17 -53 -127 58
-43 70 -101 33 65 7 46 79
-105 127 -26 63 -88 -15 70 71
-84 -127 2 86 -21 90 -127 31
88 -37 -63 33 -32 -93 -112 -56
29 20 -120 106 127 120 93 -17
-21 33 -127 54 -7 -63 68 -83
127 -57 -9 66 -47 68 -52 1
5 58 -4 52 -127 -27 -34 52
37 36 -3 -109 -23 -48 127 55
-45 21 -86 -127 -77 8 110 93
33 47 19 -54 -69 98 41 -27
109 1 84 127 -96 -54 127 -67
-40 101 -110 2 99 -87 100 -19
79 48 126 -43 -70 -127 110 -94
41 14 -127 -10 -61 -45 117 -39
42 85 -26 -127 13 99 -36 9
-29 30 111 -74 -127 56 88 -110
41 73 -12 -127 55 84 -120 44
24 -34 -37 127 -110 -88 125 -75
32 -74 102 114 124 -63 -127 -84
107 -38 -31 8 -31 -126 21 -127

sequential_2/conv2d_4/Conv2D i1 [64, 3, 3, 32]
00000000: cdb9 ebd4 b6d2 f7ee 22be d2c9 fedd a30a
00000010: bb06 da14 fca1 e0ec d1e2 e0d5 bcd9 11ad
00000020: 07c2 1acc e6d2 1fd8 1dff f1a2 e6d4 b7fe
00000030: daff f111 25e5 1eb4 27a9 bff3 9ce5 2eb4
00000040: fbd5 fea8 c5f1 37cf ff15 00e3 11c4 ad4d
00000050: f2d0 acbc 08ac ac81 f042 2ab9 ffb2 24ca
00000060: 37c6 02ea ecdc 2bc9 45ec 0c9a eb01 fef3
00000070: d617 d536 14dd 0201 28fc b3a8 b20a 38d3
00000080: 381c e6c6 b415 34dc f5b4 05cd a3de 1ec6
00000090: 1f2d cd09 e1b8 14fa 12a5 f11b c228 fe04
000000a0: e9fb 0b8c 060b 10f2 25ad cfd2 10f4 e61e
000000b0: b2de fb1d fa03 0acb db2b 2e14 0800 fc83
000000c0: b1b2 c8a4 bb1f fde4 2509 d1b5 fb94 07d2
000000d0: f92a 9e19 e6f5 f2e3 1cc4 f4eb d71b 16d2
000000e0: f6d0 08f0 e930 14d1 2710 fbfe 0ef7 2af4
000000f0: c70f 051f 46ac 32ea ed11 d6d7 fef2 fa04
-51 -71 -21 -44 -74 -46 -9 -18
34 -66 -46 -55 -2 -35 -93 10
-69 6 -38 20 -4 -95 -32 -20
-47 -30 -32 -43 -68 -39 17 -83
7 -62 26 -52 -26 -46 31 -40
29 -1 -15 -94 -26 -44 -73 -2
-38 -1 -15 17 37 -27 30 -76
39 -87 -65 -13 -100 -27 46 -76
-5 -43 -2 -88 -59 -15 55 -49
-1 21 0 -29 17 -60 -83 77
-14 -48 -84 -68 8 -84 -84 -127
-16 66 42 -71 -1 -78 36 -54
55 -58 2 -22 -20 -36 43 -55
69 -20 12 -102 -21 1 -2 -13
-42 23 -43 54 20 -35 2 1
40 -4 -77 -88 -78 10 56 -45
56 28 -26 -58 -76 21 52 -36
-11 -76 5 -51 -93 -34 30 -58
31 45 -51 9 -31 -72 20 -6
18 -91 -15 27 -62 40 -2 4
-23 -5 11 -116 6 11 16 -14
37 -83 -49 -46 16 -12 -26 30
-78 -34 -5 29 -6 3 10 -53
-37 43 46 20 8 0 -4 -125
-79 -78 -56 -92 -69 31 -3 -28
37 9 -47 -75 -5 -108 7 -46
-7 42 -98 25 -26 -11 -14 -29
28 -60 -12 -21 -41 27 22 -46
-10 -48 8 -16 -23 48 20 -47
39 16 -5 -2 14 -9 42 -12
-57 15 5 31 70 -84 50 -22
-19 17 -42 -41 -2 -14 -6 4

sequential_2/conv2d_5/Conv2D i1 [64, 3, 3, 64]
00000000: d632 2515 12e2 c001 5c16 fa0f 24e8 0a38
00000010: 0da9 e041 f210 002e f2e6 b221 d509 ff37
00000020: 07d3 1124 278a 21e6 f03e e240 eff2 ffab
00000030: 1300 edda f142 0ccd 051e e93c 2b05 6a37
00000040: fe19 05f0 ddd4 0a3d 5ff3 0e03 f2f0 faed
00000050: e201 d935 3004 2422 f10b d426 0908 1329
00000060: f319 32f1 4b0a eb0a ff33 242e 0c67 11b6
00000070: 30dc 01e9 220e d7dc d0c9 e612 f303 4407
00000080: e7f5 2107 0e02 4bd0 341e 2209 0b08 f051
00000090: da1e 1e06 05ea 0614 f645 1202 efca 22ee
000000a0: 00e3 e62f 1621 10f7 2fe5 2c1b e0e3 253e
000000b0: e4f8 5f25 02ec dc21 0e01 f733 6e07 ea3a
000000c0: b328 2f13 16e1 fcff 1825 0010 fef9 0afa
000000d0: e5da f110 eb17 bdfe dd01 f5fe d7cb d21c
000000e0: 00f0 1d12 45f4 34e9 2437 f22d 0c49 dbf0
000000f0: 36d3 daca e62d 58ce 1414 04ed 1ec3 29ef
-42 50 37 21 18 -30 -64 1
92 22 -6 15 36 -24 10 56
13 -87 -32 65 -14 16 0 46
-14 -26 -78 33 -43 9 -1 55
7 -45 17 36 39 -118 33 -26
-16 62 -30 64 -17 -14 -1 -85
19 0 -19 -38 -15 66 12 -51
5 30 -23 60 43 5 106 55
-2 25 5 -16 -35 -44 10 61
95 -13 14 3 -14 -16 -6 -19
-30 1 -39 53 48 4 36 34
-15 11 -44 38 9 8 19 41
-13 25 50 -15 75 10 -21 10
-1 51 36 46 12 103 17 -74
48 -36 1 -23 34 14 -41 -36
-48 -55 -26 18 -13 3 68 7
-25 -11 33 7 14 2 75 -48
52 30 34 9 11 8 -16 81
-38 30 30 6 5 -22 6 20
-10 69 18 2 -17 -54 34 -18
0 -29 -26 47 22 33 16 -9
47 -27 44 27 -32 -29 37 62
-28 -8 95 37 2 -20 -36 33
14 1 -9 51 110 7 -22 58
-77 40 47 19 22 -31 -4 -1
24 37 0 16 -2 -7 10 -6
-27 -38 -15 16 -21 23 -67 -2
-35 1 -11 -2 -41 -53 -46 28
0 -16 29 18 69 -12 52 -23
36 55 -14 45 12 73 -37 -16
54 -45 -38 -54 -26 45 88 -50
20 20 4 -19 30 -61 41 -17

sequential_2/dense_4/MatMul i1 [64, 1024] scale=0.0036503747 zero_point=0
00000000: 2f06 f30d f0db 21fc fdf2 d6e2 11e3 003a
00000010: 01eb 030a fafa 1a2e e504 02fa ffe1 06d4
00000020: ee10 d2df e9c8 0726 17f5 2105 ee1f e81d
00000030: f3fc 09f1 d206 f8f0 1b1a c8f5 0af9 edf5
00000040: 0a0f 1c05 e5c1 d8ed dec1 24ea ead4 0224
00000050: 02f5 dd1d 23fa 0914 f7fd 281e fff2 d8e2
00000060: 00e9 f5d6 e1fe 0b04 21dc 011a d33b d7e9
00000070: 0ee4 e5d9 dcfd 36d5 edff b3ee 16b2 f4fb
00000080: 0013 e40f 0cf8 f004 23ef ff09 18e2 16ef
00000090: 1603 0feb fbfe ff07 f0c0 f046 ec11 f300
000000a0: d3f5 ef17 d3b2 feda da24 eb0b 12e4 dd04
000000b0: 01e5 3aed 1aec 5cc5 210b e803 080d 0a04
000000c0: c9ff 0101 fedb 041e 2be8 2f00 1be9 d6a5
000000d0: b8c0 f124 1bf5 08bd f2f8 0a0e fadf f633
000000e0: 2af8 41f3 0ed9 13db bd07 2914 121b f9ee
000000f0: e7fe f2f8 dbfd ff00 261c 0ce3 fe5a f118
0.17156762 0.021902248 -0.04745487 0.04745487 -0.058405995 -0.13506386 0.120462365 -0.014601499
-0.010951124 -0.051105246 -0.15331574 -0.10951124 0.06205637 -0.10586087 0.0 0.21172173
0.0036503747 -0.07665787 0.010951124 0.036503747 -0.021902248 -0.021902248 0.09490974 0.16791724
-0.09856012 0.014601499 0.0073007494 -0.021902248 -0.0036503747 -0.113161616 0.021902248 -0.16061649
-0.065706745 0.058405995 -0.16791724 -0.120462365 -0.08395862 -0.20442098 0.025552623 0.13871424
0.08395862 -0.04015412 0.120462365 0.018251874 -0.065706745 0.113161616 -0.08760899 0.10586087
-0.04745487 -0.014601499 0.032853372 -0.05475562 -0.16791724 0.021902248 -0.029202998 -0.058405995
0.09856012 0.09490974 -0.20442098 -0.04015412 0.036503747 -0.025552623 -0.06935712 -0.04015412
0.036503747 0.05475562 0.10221049 0.018251874 -0.09856012 -0.22997361 -0.14601499 -0.06935712
-0.12411274 -0.22997361 0.13141349 -0.08030824 -0.08030824 -0.16061649 0.0073007494 0.13141349
0.0073007494 -0.04015412 -0.12776312 0.10586087 0.12776312 -0.021902248 0.032853372 0.073007494
-0.032853372 -0.010951124 0.14601499 0.10951124 -0.0036503747 -0.051105246 -0.14601499 -0.10951124
0.0 -0.08395862 -0.04015412 -0.15331574 -0.113161616 -0.0073007494 0.04015412 0.014601499
0.120462365 -0.13141349 0.0036503747 0.09490974 -0.16426685 0.21537212 -0.14966536 -0.08395862
0.051105246 -0.10221049 -0.09856012 -0.14236462 -0.13141349 -0.010951124 0.19712023 -0.15696612
-0.06935712 -0.0036503747 -0.28107885 -0.065706745 0.08030824 -0.28472924 -0.043804497 -0.018251874
0.0 0.06935712 -0.10221049 0.05475562 0.043804497 -0.029202998 -0.058405995 0.014601499
0.12776312 -0.06205637 -0.0036503747 0.032853372 0.08760899 -0.10951124 0.08030824 -0.06205637
0.08030824 0.010951124 0.05475562 -0.07665787 -0.018251874 -0.0073007494 -0.0036503747 0.025552623
-0.058405995 -0.23362398 -0.058405995 0.25552624 -0.073007494 0.06205637 -0.04745487 0.0
-0.16426685 -0.04015412 -0.06205637 0.08395862 -0.16426685 -0.28472924 -0.0073007494 -0.13871424
-0.13871424 0.13141349 -0.07665787 0.04015412 0.065706745 -0.10221049 -0.12776312 0.014601499
0.0036503747 -0.09856012 0.21172173 -0.06935712 0.09490974 -0.073007494 0.33583447 -0.21537212
0.120462365 0.04015412 -0.08760899 0.010951124 0.029202998 0.04745487 0.036503747 0.014601499
-0.20077062 -0.0036503747 0.0036503747 0.0036503747 -0.0073007494 -0.13506386 0.014601499 0.10951124
0.15696612 -0.08760899 0.17156762 0.0 0.09856012 -0.08395862 -0.15331574 -0.3321841
-0.26282698 -0.23362398 -0.05475562 0.13141349 0.09856012 -0.04015412 0.029202998 -0.24457511
-0.051105246 -0.029202998 0.036503747 0.051105246 -0.021902248 -0.120462365 -0.036503747 0.18616912
0.15331574 -0.029202998 0.23727435 -0.04745487 0.051105246 -0.14236462 0.06935712 -0.13506386
-0.24457511 0.025552623 0.14966536 0.073007494 0.065706745 0.09856012 -0.025552623 -0.065706745
-0.09125937 -0.0073007494 -0.051105246 -0.029202998 -0.13506386 -0.010951124 -0.0036503747 0.0
0.13871424 0.10221049 0.043804497 -0.10586087 -0.0073007494 0.3285337 -0.05475562 0.08760899

sequential_2/preds/MatMul i1 [3, 64] scale=0.003044718 zero_point=0
00000000: 1203 1b55 e027 2fe9 f5e7 13ec ca33 3400
00000010: e40d 2e4a 3025 c50b 710c df1a dadb df0b
00000020: ca50 3238 175e 1a11 ad29 d445 f110 b23b
00000030: e1cb d42a d9cd be0a 0d1e 07ed 38fa fb40
00000040: 6604 cae7 c9b9 47e0 2c24 e00a 1de1 49f9
00000050: 4528 ca0d eff8 34c6 0641 500b f29d 38f4
00000060: 49c7 565d 602a 3859 e0b8 3a00 2137 1efa
00000070: 1711 1bc0 0103 e9dc b741 0646 c10e d90b
00000080: 2756 ff05 242a 003b f02f 2a28 e54b 71ad
00000090: ddce eb12 aee0 27d0 ff22 37c7 24dd c8b4
000000a0: 040e d7c8 be30 6532 81be d239 b1d3 cde3
000000b0: cd01 a0f8 0700 add0 d0dd 3efb c32f 31d1
0.05480492 0.009134154 0.08220738 0.258801 -0.097430974 0.118744 0.14310174 -0.07002851
-0.0334919 -0.07611795 0.057849642 -0.06089436 -0.16441476 0.15528062 0.15832533 0.0
-0.085252106 0.039581332 0.14005703 0.22530913 0.14614646 0.11265457 -0.17963836 0.0334919
0.34405312 0.036536615 -0.10047569 0.079162665 -0.115699284 -0.11265457 -0.10047569 0.0334919
-0.16441476 0.24357744 0.1522359 0.17050421 0.07002851 0.28620347 0.079162665 0.051760204
-0.2527116 0.124833435 -0.1339676 0.21008554 -0.04567077 0.048715487 -0.237488 0.17963836
-0.09438626 -0.16137005 -0.1339676 0.12787816 -0.118744 -0.15528062 -0.20095138 0.03044718
0.039581332 0.09134154 0.021313027 -0.057849642 0.17050421 -0.018268308 -0.01522359 0.19486195
0.31056124 0.012178872 -0.16441476 -0.07611795 -0.16745949 -0.21617498 0.21617498 -0.097430974
0.1339676 0.10960984 -0.097430974 0.03044718 0.08829682 -0.09438626 0.22226441 -0.021313027
0.21008554 0.12178872 -0.16441476 0.039581332 -0.051760204 -0.024357744 0.15832533 -0.17659365
0.018268308 0.19790667 0.24357744 0.0334919 -0.042626053 -0.30142707 0.17050421 -0.036536615
0.22226441 -0.17354892 0.26184574 0.28315878 0.29229292 0.12787816 0.17050421 0.2709799
-0.097430974 -0.21921968 0.17659365 0.0 0.10047569 0.16745949 0.09134154 -0.018268308
0.07002851 0.051760204 0.08220738 -0.19486195 0.003044718 0.009134154 -0.07002851 -0.10960984
-0.22226441 0.19790667 0.018268308 0.21313025 -0.19181722 0.042626053 -0.118744 0.0334919
0.118744 0.26184574 -0.003044718 0.01522359 0.10960984 0.12787816 0.0 0.17963836
-0.048715487 0.14310174 0.12787816 0.12178872 -0.08220738 0.22835384 0.34405312 -0.2527116
-0.106565125 -0.1522359 -0.06393908 0.05480492 -0.24966687 -0.097430974 0.118744 -0.14614646
-0.003044718 0.10352041 0.16745949 -0.17354892 0.10960984 -0.106565125 -0.17050421 -0.23139857
0.012178872 0.042626053 -0.124833435 -0.17050421 -0.20095138 0.14614646 0.30751652 0.1522359
-0.38667917 -0.20095138 -0.14005703 0.17354892 -0.24053271 -0.1370123 -0.15528062 -0.08829682
-0.15528062 0.003044718 -0.29229292 -0.024357744 0.021313027 0.0 -0.2527116 -0.14614646
-0.14614646 -0.106565125 0.18877251 -0.01522359 -0.18572779 0.14310174 0.14919119 -0.14310174
