tests/micro/testdata/armv7m/mnist_model_quant_conv3.tflite (tflite, 30968 bytes, 4 tensors)

sequential/conv2d/Conv2D i1 [12, 3, 3, 1]
000000 43 7f 6b 03 d2 4f 38 19 75 8f 3d 3b 97 f0 55 81
       67 127 107 3 -46 79 56 25 117 -113 61 59 -105 -16 85 -127
000010 c1 5c 81 b5 5a 45 4a 7e 66 f7 ae 2d 73 e4 14 34
       -63 92 -127 -75 90 69 74 126 102 -9 -82 45 115 -28 20 52
000020 47 81 e3 5f 14 38 39 b0 00 53 81 b3 5d fb 6a 47
       71 -127 -29 95 20 56 57 -80 0 83 -127 -77 93 -5 106 71
000030 35 7f 13 da cf 6f 40 d1 c0 f2 24 2c 06 ef 7f 42
       53 127 19 -38 -49 111 64 -47 -64 -14 36 44 6 -17 127 66
000040 4b 58 06 31 12 b0 81 ab 3d 4b 76 c3 c7 dc 9c a9
       75 88 6 49 18 -80 -127 -85 61 75 118 -61 -57 -36 -100 -87
000050 81 41 28 91 68 0c 81 31 2e ba 81 c4 32 ad e6 5a
       -127 65 40 -111 104 12 -127 49 46 -70 -127 -60 50 -83 -26 90
000060 c6 3e 4a 87 81 e3 41 0b e1 5e 58 66
       -58 62 74 -121 -127 -29 65 11 -31 94 88 102

sequential/conv2d_1/Conv2D i1 [32, 3, 3, 12]
000000 ea 37 20 0c 1b f5 fe 20 14 f9 0c 14 e8 04 e7 0e
       -22 55 32 12 27 -11 -2 32 20 -7 12 20 -24 4 -25 14
000010 3a 20 06 28 e4 dd de 16 04 15 12 11 4e 0f 23 d0
       58 32 6 40 -28 -35 -34 22 4 21 18 17 78 15 35 -48
000020 99 01 a6 10 11 fb 14 0a f6 ff e1 28 01 00 0e 08
       -103 1 -90 16 17 -5 20 10 -10 -1 -31 40 1 0 14 8
000030 f7 1e ee 21 22 f6 17 fc db f2 f4 f3 1e 5e 0a 53
       -9 30 -18 33 34 -10 23 -4 -37 -14 -12 -13 30 94 10 83
000040 7f 05 13 e1 9f 0b 09 f0 d4 d8 e6 e7 d9 ee ca 36
       127 5 19 -31 -97 11 9 -16 -44 -40 -26 -25 -39 -18 -54 54
000050 00 1a 0f f8 e6 f6 f1 ee f7 fa ee ff ed 0e 35 f9
       0 26 15 -8 -26 -10 -15 -18 -9 -6 -18 -1 -19 14 53 -7
000060 27 55 02 01 6a f0 05 bc a7 5b 6b bf fc 15 06 f2
       39 85 2 1 106 -16 5 -68 -89 91 107 -65 -4 21 6 -14
000070 2f f1 18 fd 12 fe 32 eb f3 0d f1 fe e7 f1 0a cc
       47 -15 24 -3 18 -2 50 -21 -13 13 -15 -2 -25 -15 10 -52
000080 fd 3a e2 04 02 d4 15 f1 d5 fd 27 c1 bc 08 17 36
       -3 58 -30 4 2 -44 21 -15 -43 -3 39 -63 -68 8 23 54
000090 f2 c7 30 dd d5 21 15 18 fb ee 06 31 18 00 07 f4
       -14 -57 48 -35 -43 33 21 24 -5 -18 6 49 24 0 7 -12
0000a0 0a f1 15 ed d8 d7 09 ff fc bb 16 ff f0 08 07 f0
       10 -15 21 -19 -40 -41 9 -1 -4 -69 22 -1 -16 8 7 -16
0000b0 d3 24 cb 0a 10 e1 17 2a f7 f2 e5 0e 00 ea cd d4
       -45 36 -53 10 16 -31 23 42 -9 -14 -27 14 0 -22 -51 -44
0000c0 1d 47 03 0c 2d 18 00 b6 81 09 3a ce 18 0c 0f 21
       29 71 3 12 45 24 0 -74 -127 9 58 -50 24 12 15 33
0000d0 fc f6 09 89 89 40 c2 cc 15 d9 02 10 f1 19 e5 31
       -4 -10 9 -119 -119 64 -62 -52 21 -39 2 16 -15 25 -27 49
0000e0 d8 28 04 05 10 d0 1a fc de 07 21 10 e5 1f e7 0e
       -40 40 4 5 16 -48 26 -4 -34 7 33 16 -27 31 -25 14
0000f0 ef a8 f3 0c eb fc 07 06 fa fa a8 34 06 c6 0f 2b
       -17 -88 -13 12 -21 -4 7 6 -6 -6 -88 52 6 -58 15 43

sequential/conv2d_2/Conv2D i1 [64, 3, 3, 32]
000000 c7 f3 03 14 04 dc 2f 41 9c ad 06 dd 05 e5 d4 2e
       -57 -13 3 20 4 -36 47 65 -100 -83 6 -35 5 -27 -44 46
000010 2d 2c f9 e8 2f d2 f3 f1 28 f3 a3 fb 3a dd f4 1f
       45 44 -7 -24 47 -46 -13 -15 40 -13 -93 -5 58 -35 -12 31
000020 cb e0 08 01 d6 c0 2c 17 ee c3 f8 02 dd f2 e8 14
       -53 -32 8 1 -42 -64 44 23 -18 -61 -8 2 -35 -14 -24 20
000030 0c 17 00 c7 d3 e6 c7 ec fd f6 b3 f5 0d e8 12 fc
       12 23 0 -57 -45 -26 -57 -20 -3 -10 -77 -11 13 -24 18 -4
000040 81 de d9 0a 2a b9 2c ed d6 af 32 e5 d2 d4 d6 2a
       -127 -34 -39 10 42 -71 44 -19 -42 -81 50 -27 -46 -44 -42 42
000050 8b 1d be ad b9 bc 8f f0 c3 dc de 06 0b fa 2b 39
       -117 29 -66 -83 -71 -68 -113 -16 -61 -36 -34 6 11 -6 43 57
000060 08 24 06 17 1c f3 2f 1c fb 0a 22 eb 08 ef 05 3e
       8 36 6 23 28 -13 47 28 -5 10 34 -21 8 -17 5 62
000070 f9 35 18 1a e5 ed 16 03 f7 f5 0d ff 0f 0f f4 12
       -7 53 24 26 -27 -19 22 3 -9 -11 13 -1 15 15 -12 18
000080 0a 28 07 0a 02 0e 2c eb 02 0e f2 05 03 d2 1d 23
       10 40 7 10 2 14 44 -21 2 14 -14 5 3 -46 29 35
000090 e9 0b 2b ec e6 04 f1 1a fb 0c 0b f4 00 11 19 07
       -23 11 43 -20 -26 4 -15 26 -5 12 11 -12 0 17 25 7
0000a0 ee 0b 25 0c fe 24 04 07 09 05 c9 0a 1b f0 da 11
       -18 11 37 12 -2 36 4 7 9 5 -55 10 27 -16 -38 17
0000b0 3c 22 0c 2b 45 08 e1 04 ff f5 08 1a 11 cc ea fb
       60 34 12 43 69 8 -31 4 -1 -11 8 26 17 -52 -22 -5
0000c0 05 f7 f0 fb 15 00 16 0d 29 fd 08 0b 07 00 01 ea
       5 -9 -16 -5 21 0 22 13 41 -3 8 11 7 0 1 -22
0000d0 06 fe f6 f2 12 ff 1a 0b 0b f6 fa dc fe 16 1d 0f
       6 -2 -10 -14 18 -1 26 11 11 -10 -6 -36 -2 22 29 15
0000e0 fb 13 fa e5 1e fa d1 fc 1a 19 fc 09 10 09 06 e9
       -5 19 -6 -27 30 -6 -47 -4 26 25 -4 9 16 9 6 -23
0000f0 fa 07 fd f8 ee 02 e2 f9 1e e0 21 24 ff 02 c2 e1
       -6 7 -3 -8 -18 2 -30 -7 30 -32 33 36 -1 2 -62 -31

sequential/dense/MatMul i1 [10, 64] scale=0.0046958663 zero_point=0
000000 0a 23 2a 20 c8 37 ff ec fa d3 dc 08 2c b4 92 2f
       0.046958663 0.16435532 0.19722638 0.15026772 -0.2629685 0.25827265 -0.0046958663 -0.093917325 -0.028175198 -0.21131398 -0.16905119 0.03756693 0.20661812 -0.35688585 -0.5165453 0.22070572
000010 4d 46 dd b4 d1 fc ee d8 ee 36 cb ed b5 e7 f9 0e
       0.3615817 0.32871065 -0.16435532 -0.35688585 -0.22070572 -0.018783465 -0.08452559 -0.18783465 -0.08452559 0.2535768 -0.24888091 -0.08922146 -0.35218996 -0.11739665 -0.032871064 0.06574213
000020 d0 cd 41 53 07 d9 da 26 de 02 2b f8 ec eb d2 e1
       -0.22540158 -0.23948918 0.3052313 0.3897569 0.032871064 -0.18313879 -0.17844293 0.17844293 -0.15965945 0.0093917325 0.20192225 -0.03756693 -0.093917325 -0.09861319 -0.21600986 -0.14557186
000030 09 ad d5 29 f9 fb e7 0d 06 06 12 cc d0 c7 14 40
       0.042262796 -0.3897569 -0.20192225 0.19253051 -0.032871064 -0.023479331 -0.11739665 0.06104626 0.028175198 0.028175198 0.08452559 -0.24418505 -0.22540158 -0.26766437 0.093917325 0.30053544
000040 b2 21 32 1a 2f e2 3c 44 39 3d 36 05 56 49 30 d5
       -0.36627758 0.15496358 0.2347933 0.12209252 0.22070572 -0.140876 0.281752 0.3193189 0.26766437 0.28644785 0.2535768 0.023479331 0.4038445 0.34279823 0.22540158 -0.20192225
000050 9e c2 df 9e 98 ff 3c ee fe 81 b8 de c4 e4 eb c7
       -0.4601949 -0.29114372 -0.15496358 -0.4601949 -0.4883701 -0.0046958663 0.281752 -0.08452559 -0.0093917325 -0.596375 -0.33810237 -0.15965945 -0.281752 -0.13148426 -0.09861319 -0.26766437
000060 ff 91 17 04 43 0b 73 2d 11 96 e4 2c 10 29 c5 d4
       -0.0046958663 -0.5212411 0.10800493 0.018783465 0.31462303 0.05165453 0.54002464 0.21131398 0.07982972 -0.49776182 -0.13148426 0.20661812 0.07513386 0.19253051 -0.2770561 -0.20661812
000070 0f f6 29 2a d0 35 04 03 f7 20 31 0e 0b 06 02 da
       0.070438 -0.046958663 0.19253051 0.19722638 -0.22540158 0.24888091 0.018783465 0.014087599 -0.042262796 0.15026772 0.23009744 0.06574213 0.05165453 0.028175198 0.0093917325 -0.17844293
000080 f0 17 ef df e0 30 39 06 28 2a 36 f2 d7 16 ea 07
       -0.07513386 0.10800493 -0.07982972 -0.15496358 -0.15026772 0.22540158 0.26766437 0.028175198 0.18783465 0.19722638 0.2535768 -0.06574213 -0.19253051 0.10330906 -0.10330906 0.032871064
000090 b5 2b cc 29 4b cb f3 f0 4a 11 d2 2c f5 23 36 ef
       -0.35218996 0.20192225 -0.24418505 0.19253051 0.35218996 -0.24888091 -0.06104626 -0.07513386 0.3474941 0.07982972 -0.21600986 0.20661812 -0.05165453 0.16435532 0.2535768 -0.07982972
0000a0 29 de d7 dc 3e f4 e7 00 30 23 09 c9 e0 cd c6 03
       0.19253051 -0.15965945 -0.19253051 -0.16905119 0.29114372 -0.056350395 -0.11739665 0.0 0.22540158 0.16435532 0.042262796 -0.25827265 -0.15026772 -0.23948918 -0.27236024 0.014087599
0000b0 32 fe b5 17 45 bc 33 da 00 dd f4 e4 d8 0f cc 41
       0.2347933 -0.0093917325 -0.35218996 0.10800493 0.32401478 -0.3193189 0.23948918 -0.17844293 0.0 -0.16435532 -0.056350395 -0.13148426 -0.18783465 0.070438 -0.24418505 0.3052313
0000c0 d6 e9 f1 f4 50 b6 fd 1b 1f f9 43 0b c9 c0 e4 15
       -0.19722638 -0.10800493 -0.070438 -0.056350395 0.3756693 -0.3474941 -0.014087599 0.1267884 0.14557186 -0.032871064 0.31462303 0.05165453 -0.25827265 -0.30053544 -0.13148426 0.09861319
0000d0 f1 04 5f de 05 f5 0f db b9 0f c9 2f f6 24 31 b0
       -0.070438 0.018783465 0.4461073 -0.15965945 0.023479331 -0.05165453 0.070438 -0.17374705 -0.3334065 0.070438 -0.25827265 0.22070572 -0.046958663 0.16905119 0.23009744 -0.3756693
0000e0 d8 d8 f0 00 d2 eb 12 c6 01 e4 09 01 05 1c 2b 44
       -0.18783465 -0.18783465 -0.07513386 0.0 -0.21600986 -0.09861319 0.08452559 -0.27236024 0.0046958663 -0.13148426 0.042262796 0.0046958663 0.023479331 0.13148426 0.20192225 0.3193189
0000f0 f6 3f e3 fb ee d8 08 d7 33 b8 d3 be 32 03 d3 d1
       -0.046958663 0.29583958 -0.13618012 -0.023479331 -0.08452559 -0.18783465 0.03756693 -0.19253051 0.23948918 -0.33810237 -0.21131398 -0.30992717 0.2347933 0.014087599 -0.21131398 -0.22070572
