tests/micro/testdata/armv7m/mnist_model_quant.tflite (tflite, 29888 bytes, 4 tensors)

sequential/conv2d/Conv2D i1 [12, 3, 3, 1]
00000000: 40ba e523 b281 7a2c 1fad 81b0 2020 1353
00000010: 4b37 2f59 b00c 4145 daf4 7f16 fcf4 bf40
00000020: 3fb3 be7f 2cbe 816a 2aa7 1e76 203d 167b
00000030: dd5c 3b2f 7f6d 1a0a 9d62 fd81 422b a581
00000040: 5332 de5a 246b 5cb0 505f 4c12 08cc 8181
00000050: d50a 5928 647f df42 17ab efda 8522 fed7
00000060: 1147 7f3e f06b 655c 2286 81c9
64 -70 -27 35 -78 -127 122 44
31 -83 -127 -80 32 32 19 83
75 55 47 89 -80 12 65 69
-38 -12 127 22 -4 -12 -65 64
63 -77 -66 127 44 -66 -127 106
42 -89 30 118 32 61 22 123
-35 92 59 47 127 109 26 10
-99 98 -3 -127 66 43 -91 -127
83 50 -34 90 36 107 92 -80
80 95 76 18 8 -52 -127 -127
-43 10 89 40 100 127 -33 66
23 -85 -17 -38 -123 34 -2 -41
17 71 127 62 -16 107 101 92
34 -122 -127 -55

sequential/conv2d_1/Conv2D i1 [32, 3, 3, 12]
00000000: 0f0e d9fa ddf2 ccc6 45ed 1400 df02 d2d6
00000010: bf13 99f9 fc06 30e6 0df8 1e19 b816 dd2d
00000020: cc1b fefd e33d 1a2a e8fe 810b 202d 1c05
00000030: caee 14dc ba16 d71b efeb cfef fba4 181e
00000040: f419 e809 b823 e8fa c5c5 25ff b9f2 060b
00000050: fa2d b122 0c9b 1d16 2429 fafc 9a22 c5ff
00000060: 34c6 0824 f003 25f8 a035 06f7 3f29 fd08
00000070: 29e3 36f7 cfca fe06 f8da fce5 0118 d2ee
00000080: e7ed 0005 d1df 280c d644 0611 f00c 20fd
00000090: 1305 e4d5 3efe 0adc 0412 040f d5be f101
000000a0: b9e8 a814 3bd1 d615 d9d5 0e15 1b58 2f1e
000000b0: 861b d8d9 081a bdb5 d9c6 d4d6 74b5 c215
000000c0: eba8 1a1f 9fed e9f8 a6d9 a0c3 3b95 1452
000000d0: fd28 7f54 8e56 f4ce 15e5 f501 222a 2c25
000000e0: c9fb ef0c fcfb e5f8 bd24 f228 eb2c f80b
000000f0: cc07 1203 da04 caf8 601a 0c14 14bc f309
15 14 -39 -6 -35 -14 -52 -58
69 -19 20 0 -33 2 -46 -42
-65 19 -103 -7 -4 6 48 -26
13 -8 30 25 -72 22 -35 45
-52 27 -2 -3 -29 61 26 42
-24 -2 -127 11 32 45 28 5
-54 -18 20 -36 -70 22 -41 27
-17 -21 -49 -17 -5 -92 24 30
-12 25 -24 9 -72 35 -24 -6
-59 -59 37 -1 -71 -14 6 11
-6 45 -79 34 12 -101 29 22
36 41 -6 -4 -102 34 -59 -1
52 -58 8 36 -16 3 37 -8
-96 53 6 -9 63 41 -3 8
41 -29 54 -9 -49 -54 -2 6
-8 -38 -4 -27 1 24 -46 -18
-25 -19 0 5 -47 -33 40 12
-42 68 6 17 -16 12 32 -3
19 5 -28 -43 62 -2 10 -36
4 18 4 15 -43 -66 -15 1
-71 -24 -88 20 59 -47 -42 21
-39 -43 14 21 27 88 47 30
-122 27 -40 -39 8 26 -67 -75
-39 -58 -44 -42 116 -75 -62 21
-21 -88 26 31 -97 -19 -23 -8
-90 -39 -96 -61 59 -107 20 82
-3 40 127 84 -114 86 -12 -50
21 -27 -11 1 34 42 44 37
-55 -5 -17 12 -4 -5 -27 -8
-67 36 -14 40 -21 44 -8 11
-52 7 18 3 -38 4 -54 -8
96 26 12 20 20 -68 -13 9

sequential/conv2d_2/Conv2D i1 [64, 3, 3, 32]
00000000: eb00 32cc 0ce3 267f 2fe9 e0f9 d8f3 e93a
00000010: ee1c fcff f7da 3021 ebe1 f51f 2516 31fa
00000020: d9ea bce7 ebe1 294e 03e8 d82b 3ce4 1e19
00000030: eef2 e332 fdd9 fcfd 4111 fdf2 0e0f 4503
00000040: dcee cdf4 f1da f7d0 07cf 41be 2dd2 2ff5
00000050: 2803 c202 a31a fa09 f004 4cf7 1c0b bfea
00000060: f70e e604 09f8 e6ff f21d 060e 1209 1811
00000070: 0bfd 141b f5cf f2fe 0aff 13f6 fc01 3bf2
00000080: e2b4 1af4 2a1f 2ef4 f51f d117 3820 ee37
00000090: c5e6 0220 2aea b3f5 fe16 a1ee ed19 0a22
000000a0: 1531 0b34 b5f3 bc39 0411 3c03 f61c 0906
000000b0: 430c f9e8 f8ba eaef d21b 4e0f 08fc b309
000000c0: ee31 0a20 ea01 d206 1407 21f7 2502 42b2
000000d0: 391b e4e5 023f 22e5 1b19 fe34 eeda 0233
000000e0: e8fd 17fe ed06 0404 22e6 d7fe 0bff 37c2
000000f0: f7eb 14c5 133d fff7 fbe7 031c 01f0 22f7
-21 0 50 -52 12 -29 38 127
47 -23 -32 -7 -40 -13 -23 58
-18 28 -4 -1 -9 -38 48 33
-21 -31 -11 31 37 22 49 -6
-39 -22 -68 -25 -21 -31 41 78
3 -24 -40 43 60 -28 30 25
-18 -14 -29 50 -3 -39 -4 -3
65 17 -3 -14 14 15 69 3
-36 -18 -51 -12 -15 -38 -9 -48
7 -49 65 -66 45 -46 47 -11
40 3 -62 2 -93 26 -6 9
-16 4 76 -9 28 11 -65 -22
-9 14 -26 4 9 -8 -26 -1
-14 29 6 14 18 9 24 17
11 -3 20 27 -11 -49 -14 -2
10 -1 19 -10 -4 1 59 -14
-30 -76 26 -12 42 31 46 -12
-11 31 -47 23 56 32 -18 55
-59 -26 2 32 42 -22 -77 -11
-2 22 -95 -18 -19 25 10 34
21 49 11 52 -75 -13 -68 57
4 17 60 3 -10 28 9 6
67 12 -7 -24 -8 -70 -22 -17
-46 27 78 15 8 -4 -77 9
-18 49 10 32 -22 1 -46 6
20 7 33 -9 37 2 66 -78
57 27 -28 -27 2 63 34 -27
27 25 -2 52 -18 -38 2 51
-24 -3 23 -2 -19 6 4 4
34 -26 -41 -2 11 -1 55 -62
-9 -21 20 -59 19 61 -1 -9
-5 -25 3 28 1 -16 34 -9

sequential/dense/MatMul i1 [10, 64] scale=0.004215876 zero_point=0
00000000: d411 ef04 2821 5210 c11d e3cc e5fe d753
00000010: 173d 00e6 09ad e8e2 e114 2d2a c02a 65b9
00000020: aeab 1c97 ce4e f09a 9719 c548 af0c 3027
00000030: b3d7 16e2 be45 f747 2b06 290f bc08 29f1
00000040: 240a 91dc d110 302c 2cb2 f5bf 56f9 4d15
00000050: e7ea f800 2a2f f8ac 228a db14 35e9 e7a3
00000060: f7da d120 10ff 9c45 1634 addb 3d02 dae9
00000070: 2402 3f25 fe15 8cb1 2169 cb42 59f0 51c1
00000080: a30d 0e49 43d4 2931 0ed8 3a2b f5fe be24
00000090: 52d9 d6e6 e9fe 2edc 51e3 cd2b 1d1e 0f54
000000a0: d6d5 b8b5 be20 333f 3585 473e 3f9a f3dc
000000b0: ece6 feb3 d507 e6fc f101 f053 c3e1 2901
000000c0: eb36 2be7 3ab0 ae6a e71a dbcd 98c6 d2e1
000000d0: fee0 e9de be2b cfeb c804 cac3 f631 cbc4
000000e0: bc60 b33b 1fb9 e80b 2ca6 0ac5 1f0d 0d38
000000f0: f0ca 392d 24c1 c2de ad05 163d d315 1046
-0.18549855 0.07166989 -0.07166989 0.016863504 0.16863504 0.13912392 0.34570184 0.06745402
-0.2656002 0.12226041 -0.12226041 -0.21922556 -0.11382865 -0.008431752 -0.17285092 0.3499177
0.09696515 0.25716844 0.0 -0.10961278 0.037942886 -0.3499177 -0.10118103 -0.12647629
-0.13069215 0.08431752 0.18971443 0.1770668 -0.26981607 0.1770668 0.42580348 -0.2993272
-0.34570184 -0.35834947 0.11804453 -0.44266698 -0.21079381 0.32883835 -0.06745402 -0.43001935
-0.44266698 0.105396904 -0.2487367 0.3035431 -0.34148598 0.050590515 0.20236206 0.16441917
-0.32462245 -0.17285092 0.092749275 -0.12647629 -0.27824783 0.29089546 -0.037942886 0.2993272
0.18128267 0.025295258 0.17285092 0.063238144 -0.28667957 0.03372701 0.17285092 -0.063238144
0.15177155 0.04215876 -0.46796224 -0.15177155 -0.19814618 0.06745402 0.20236206 0.18549855
0.18549855 -0.32883835 -0.046374638 -0.27403194 0.36256534 -0.029511133 0.32462245 0.0885334
-0.105396904 -0.092749275 -0.03372701 0.0 0.1770668 0.19814618 -0.03372701 -0.3541336
0.14333978 -0.4974734 -0.15598741 0.08431752 0.22344144 -0.09696515 -0.105396904 -0.3920765
-0.037942886 -0.1602033 -0.19814618 0.13490804 0.06745402 -0.004215876 -0.42158762 0.29089546
0.092749275 0.21922556 -0.3499177 -0.15598741 0.25716844 0.008431752 -0.1602033 -0.09696515
0.15177155 0.008431752 0.2656002 0.15598741 -0.008431752 0.0885334 -0.48904163 -0.3330542
0.13912392 0.44266698 -0.22344144 0.27824783 0.37521297 -0.06745402 0.34148598 -0.2656002
-0.3920765 0.05480639 0.059022266 0.30775896 0.2824637 -0.18549855 0.17285092 0.20657793
0.059022266 -0.16863504 0.24452081 0.18128267 -0.046374638 -0.008431752 -0.27824783 0.15177155
0.34570184 -0.16441917 -0.1770668 -0.10961278 -0.09696515 -0.008431752 0.1939303 -0.15177155
0.34148598 -0.12226041 -0.21500967 0.18128267 0.12226041 0.12647629 0.063238144 0.3541336
-0.1770668 -0.18128267 -0.3035431 -0.31619072 -0.27824783 0.13490804 0.21500967 0.2656002
0.22344144 -0.5185528 0.2993272 0.2613843 0.2656002 -0.43001935 -0.05480639 -0.15177155
-0.08431752 -0.10961278 -0.008431752 -0.32462245 -0.18128267 0.029511133 -0.10961278 -0.016863504
-0.063238144 0.004215876 -0.06745402 0.3499177 -0.25716844 -0.13069215 0.17285092 0.004215876
-0.0885334 0.2276573 0.18128267 -0.105396904 0.24452081 -0.33727008 -0.34570184 0.44688287
-0.105396904 0.10961278 -0.15598741 -0.21500967 -0.4384511 -0.24452081 -0.1939303 -0.13069215
-0.008431752 -0.13490804 -0.09696515 -0.14333978 -0.27824783 0.18128267 -0.20657793 -0.0885334
-0.23608907 0.016863504 -0.2276573 -0.25716844 -0.04215876 0.20657793 -0.22344144 -0.25295258
-0.28667957 0.40472412 -0.32462245 0.2487367 0.13069215 -0.2993272 -0.10118103 0.046374638
0.18549855 -0.37942886 0.04215876 -0.2487367 0.13069215 0.05480639 0.05480639 0.23608907
-0.06745402 -0.2276573 0.24030493 0.18971443 0.15177155 -0.2656002 -0.2613843 -0.14333978
-0.3499177 0.02107938 0.092749275 0.25716844 -0.18971443 0.0885334 0.06745402 0.29511133
